…
I0718 10:52:33.811959 30641 net.cpp:51] Initializing net from parameters: 
name: "ResNet-34"
state {
  phase: TRAIN
  level: 0
  stage: ""
}
layer {
  name: "train-data"
  type: "ImageData"
  top: "data"
  top: "label"
  include {
    phase: TRAIN
  }
  transform_param {
    mirror: true
    crop_size: 112
    mean_file: "/alidata/home/yuanjun/code/DIGITS/digits/jobs/20180717-134051-8e1e/mean.binaryproto"
  }
  image_data_param {
    source: "/alidata/home/yuanjun/code/Aladdin/train.txt"
    batch_size: 64
    new_height: 112
    new_width: 112
    root_folder: "/alidata/home/yuanjun/data/ms1m/"
  }
}
layer {
  name: "conv1"
  type: "Convolution"
  bottom: "data"
  top: "conv1"
  convolution_param {
    num_output: 64
    bias_term: false
    pad: 1
    kernel_size: 3
    stride: 1
    weight_filler {
      type: "msra"
    }
  }
}
layer {
  name: "bn_conv1"
  type: "BatchNorm"
  bottom: "conv1"
  top: "conv1"
  batch_norm_param {
    use_global_stats: false
  }
}
layer {
  name: "scale_conv1"
  type: "Scale"
  bottom: "conv1"
  top: "conv1"
  scale_param {
    bias_term: true
  }
}
layer {
  name: "conv1_relu"
  type: "ReLU"
  bottom: "conv1"
  top: "conv1"
}
layer {
  name: "pool1"
  type: "Pooling"
  bottom: "conv1"
  top: "pool1"
  pooling_param {
    pool: MAX
    kernel_size: 3
    stride: 2
  }
}
layer {
  name: "res2a_branch1"
  type: "Convolution"
  bottom: "pool1"
  top: "res2a_branch1"
  convolution_param {
    num_output: 64
    bias_term: false
    pad: 0
    kernel_size: 1
    stride: 1
    weight_filler {
      type: "msra"
    }
  }
}
layer {
  name: "bn2a_branch1"
  type: "BatchNorm"
  bottom: "res2a_branch1"
  top: "res2a_branch1"
  batch_norm_param {
    use_global_stats: false
  }
}
layer {
  name: "scale2a_branch1"
  type: "Scale"
  bottom: "res2a_branch1"
  top: "res2a_branch1"
  scale_param {
    bias_term: true
  }
}
layer {
  name: "res2a_branch2a"
  type: "Convolution"
  bottom: "pool1"
  top: "res2a_branch2a"
  convolution_param {
    num_output: 64
    bias_term: false
    pad: 1
    kernel_size: 3
    stride: 1
    weight_filler {
      type: "msra"
    }
  }
}
layer {
  name: "bn2a_branch2a"
  type: "BatchNorm"
  bottom: "res2a_branch2a"
  top: "res2a_branch2a"
  batch_norm_param {
    use_global_stats: false
  }
}
layer {
  name: "scale2a_branch2a"
  type: "Scale"
  bottom: "res2a_branch2a"
  top: "res2a_branch2a"
  scale_param {
    bias_term: true
  }
}
layer {
  name: "res2a_branch2a_relu"
  type: "ReLU"
  bottom: "res2a_branch2a"
  top: "res2a_branch2a"
}
layer {
  name: "res2a_branch2b"
  type: "Convolution"
  bottom: "res2a_branch2a"
  top: "res2a_branch2b"
  convolution_param {
    num_output: 64
    bias_term: false
    pad: 1
    kernel_size: 3
    stride: 1
    weight_filler {
      type: "msra"
    }
  }
}
layer {
  name: "bn2a_branch2b"
  type: "BatchNorm"
  bottom: "res2a_branch2b"
  top: "res2a_branch2b"
  batch_norm_param {
    use_global_stats: false
  }
}
layer {
  name: "scale2a_branch2b"
  type: "Scale"
  bottom: "res2a_branch2b"
  top: "res2a_branch2b"
  scale_param {
    bias_term: true
  }
}
layer {
  name: "res2a"
  type: "Eltwise"
  bottom: "res2a_branch1"
  bottom: "res2a_branch2b"
  top: "res2a"
  eltwise_param {
    operation: SUM
  }
}
layer {
  name: "res2a_relu"
  type: "ReLU"
  bottom: "res2a"
  top: "res2a"
}
layer {
  name: "res2b_branch2a"
  type: "Convolution"
  bottom: "res2a"
  top: "res2b_branch2a"
  convolution_param {
    num_output: 64
    bias_term: false
    pad: 1
    kernel_size: 3
    stride: 1
    weight_filler {
      type: "msra"
    }
  }
}
layer {
  name: "bn2b_branch2a"
  type: "BatchNorm"
  bottom: "res2b_branch2a"
  top: "res2b_branch2a"
  batch_norm_param {
    use_global_stats: false
  }
}
layer {
  name: "scale2b_branch2a"
  type: "Scale"
  bottom: "res2b_branch2a"
  top: "res2b_branch2a"
  scale_param {
    bias_term: true
  }
}
layer {
  name: "res2b_branch2a_relu"
  type: "ReLU"
  bottom: "res2b_branch2a"
  top: "res2b_branch2a"
}
layer {
  name: "res2b_branch2b"
  type: "Convolution"
  bottom: "res2b_branch2a"
  top: "res2b_branch2b"
  convolution_param {
    num_output: 64
    bias_term: false
    pad: 1
    kernel_size: 3
    stride: 1
    weight_filler {
      type: "msra"
    }
  }
}
layer {
  name: "bn2b_branch2b"
  type: "BatchNorm"
  bottom: "res2b_branch2b"
  top: "res2b_branch2b"
  batch_norm_param {
    use_global_stats: false
  }
}
layer {
  name: "scale2b_branch2b"
  type: "Scale"
  bottom: "res2b_branch2b"
  top: "res2b_branch2b"
  scale_param {
    bias_term: true
  }
}
layer {
  name: "res2b"
  type: "Eltwise"
  bottom: "res2a"
  bottom: "res2b_branch2b"
  top: "res2b"
  eltwise_param {
    operation: SUM
  }
}
layer {
  name: "res2b_relu"
  type: "ReLU"
  bottom: "res2b"
  top: "res2b"
}
layer {
  name: "res2c_branch2a"
  type: "Convolution"
  bottom: "res2b"
  top: "res2c_branch2a"
  convolution_param {
    num_output: 64
    bias_term: false
    pad: 1
    kernel_size: 3
    stride: 1
    weight_filler {
      type: "msra"
    }
  }
}
layer {
  name: "bn2c_branch2a"
  type: "BatchNorm"
  bottom: "res2c_branch2a"
  top: "res2c_branch2a"
  batch_norm_param {
    use_global_stats: false
  }
}
layer {
  name: "scale2c_branch2a"
  type: "Scale"
  bottom: "res2c_branch2a"
  top: "res2c_branch2a"
  scale_param {
    bias_term: true
  }
}
layer {
  name: "res2c_branch2a_relu"
  type: "ReLU"
  bottom: "res2c_branch2a"
  top: "res2c_branch2a"
}
layer {
  name: "res2c_branch2b"
  type: "Convolution"
  bottom: "res2c_branch2a"
  top: "res2c_branch2b"
  convolution_param {
    num_output: 64
    bias_term: false
    pad: 1
    kernel_size: 3
    stride: 1
    weight_filler {
      type: "msra"
    }
  }
}
layer {
  name: "bn2c_branch2b"
  type: "BatchNorm"
  bottom: "res2c_branch2b"
  top: "res2c_branch2b"
  batch_norm_param {
    use_global_stats: false
  }
}
layer {
  name: "scale2c_branch2b"
  type: "Scale"
  bottom: "res2c_branch2b"
  top: "res2c_branch2b"
  scale_param {
    bias_term: true
  }
}
layer {
  name: "res2c"
  type: "Eltwise"
  bottom: "res2b"
  bottom: "res2c_branch2b"
  top: "res2c"
  eltwise_param {
    operation: SUM
  }
}
layer {
  name: "res2c_relu"
  type: "ReLU"
  bottom: "res2c"
  top: "res2c"
}
layer {
  name: "res3a_branch1"
  type: "Convolution"
  bottom: "res2c"
  top: "res3a_branch1"
  convolution_param {
    num_output: 128
    bias_term: false
    pad: 0
    kernel_size: 1
    stride: 2
    weight_filler {
      type: "msra"
    }
  }
}
layer {
  name: "bn3a_branch1"
  type: "BatchNorm"
  bottom: "res3a_branch1"
  top: "res3a_branch1"
  batch_norm_param {
    use_global_stats: false
  }
}
layer {
  name: "scale3a_branch1"
  type: "Scale"
  bottom: "res3a_branch1"
  top: "res3a_branch1"
  scale_param {
    bias_term: true
  }
}
layer {
  name: "res3a_branch2a"
  type: "Convolution"
  bottom: "res2c"
  top: "res3a_branch2a"
  convolution_param {
    num_output: 128
    bias_term: false
    pad: 1
    kernel_size: 3
    stride: 2
    weight_filler {
      type: "msra"
    }
  }
}
layer {
  name: "bn3a_branch2a"
  type: "BatchNorm"
  bottom: "res3a_branch2a"
  top: "res3a_branch2a"
  batch_norm_param {
    use_global_stats: false
  }
}
layer {
  name: "scale3a_branch2a"
  type: "Scale"
  bottom: "res3a_branch2a"
  top: "res3a_branch2a"
  scale_param {
    bias_term: true
  }
}
layer {
  name: "res3a_branch2a_relu"
  type: "ReLU"
  bottom: "res3a_branch2a"
  top: "res3a_branch2a"
}
layer {
  name: "res3a_branch2b"
  type: "Convolution"
  bottom: "res3a_branch2a"
  top: "res3a_branch2b"
  convolution_param {
    num_output: 128
    bias_term: false
    pad: 1
    kernel_size: 3
    stride: 1
    weight_filler {
      type: "msra"
    }
  }
}
layer {
  name: "bn3a_branch2b"
  type: "BatchNorm"
  bottom: "res3a_branch2b"
  top: "res3a_branch2b"
  batch_norm_param {
    use_global_stats: false
  }
}
layer {
  name: "scale3a_branch2b"
  type: "Scale"
  bottom: "res3a_branch2b"
  top: "res3a_branch2b"
  scale_param {
    bias_term: true
  }
}
layer {
  name: "res3a"
  type: "Eltwise"
  bottom: "res3a_branch1"
  bottom: "res3a_branch2b"
  top: "res3a"
  eltwise_param {
    operation: SUM
  }
}
layer {
  name: "res3a_relu"
  type: "ReLU"
  bottom: "res3a"
  top: "res3a"
}
layer {
  name: "res3b_branch2a"
  type: "Convolution"
  bottom: "res3a"
  top: "res3b_branch2a"
  convolution_param {
    num_output: 128
    bias_term: false
    pad: 1
    kernel_size: 3
    stride: 1
    weight_filler {
      type: "msra"
    }
  }
}
layer {
  name: "bn3b_branch2a"
  type: "BatchNorm"
  bottom: "res3b_branch2a"
  top: "res3b_branch2a"
  batch_norm_param {
    use_global_stats: false
  }
}
layer {
  name: "scale3b_branch2a"
  type: "Scale"
  bottom: "res3b_branch2a"
  top: "res3b_branch2a"
  scale_param {
    bias_term: true
  }
}
layer {
  name: "res3b_branch2a_relu"
  type: "ReLU"
  bottom: "res3b_branch2a"
  top: "res3b_branch2a"
}
layer {
  name: "res3b_branch2b"
  type: "Convolution"
  bottom: "res3b_branch2a"
  top: "res3b_branch2b"
  convolution_param {
    num_output: 128
    bias_term: false
    pad: 1
    kernel_size: 3
    stride: 1
    weight_filler {
      type: "msra"
    }
  }
}
layer {
  name: "bn3b_branch2b"
  type: "BatchNorm"
  bottom: "res3b_branch2b"
  top: "res3b_branch2b"
  batch_norm_param {
    use_global_stats: false
  }
}
layer {
  name: "scale3b_branch2b"
  type: "Scale"
  bottom: "res3b_branch2b"
  top: "res3b_branch2b"
  scale_param {
    bias_term: true
  }
}
layer {
  name: "res3b"
  type: "Eltwise"
  bottom: "res3a"
  bottom: "res3b_branch2b"
  top: "res3b"
  eltwise_param {
    operation: SUM
  }
}
layer {
  name: "res3b_relu"
  type: "ReLU"
  bottom: "res3b"
  top: "res3b"
}
layer {
  name: "res3c_branch2a"
  type: "Convolution"
  bottom: "res3b"
  top: "res3c_branch2a"
  convolution_param {
    num_output: 128
    bias_term: false
    pad: 1
    kernel_size: 3
    stride: 1
    weight_filler {
      type: "msra"
    }
  }
}
layer {
  name: "bn3c_branch2a"
  type: "BatchNorm"
  bottom: "res3c_branch2a"
  top: "res3c_branch2a"
  batch_norm_param {
    use_global_stats: false
  }
}
layer {
  name: "scale3c_branch2a"
  type: "Scale"
  bottom: "res3c_branch2a"
  top: "res3c_branch2a"
  scale_param {
    bias_term: true
  }
}
layer {
  name: "res3c_branch2a_relu"
  type: "ReLU"
  bottom: "res3c_branch2a"
  top: "res3c_branch2a"
}
layer {
  name: "res3c_branch2b"
  type: "Convolution"
  bottom: "res3c_branch2a"
  top: "res3c_branch2b"
  convolution_param {
    num_output: 128
    bias_term: false
    pad: 1
    kernel_size: 3
    stride: 1
    weight_filler {
      type: "msra"
    }
  }
}
layer {
  name: "bn3c_branch2b"
  type: "BatchNorm"
  bottom: "res3c_branch2b"
  top: "res3c_branch2b"
  batch_norm_param {
    use_global_stats: false
  }
}
layer {
  name: "scale3c_branch2b"
  type: "Scale"
  bottom: "res3c_branch2b"
  top: "res3c_branch2b"
  scale_param {
    bias_term: true
  }
}
layer {
  name: "res3c"
  type: "Eltwise"
  bottom: "res3b"
  bottom: "res3c_branch2b"
  top: "res3c"
  eltwise_param {
    operation: SUM
  }
}
layer {
  name: "res3c_relu"
  type: "ReLU"
  bottom: "res3c"
  top: "res3c"
}
layer {
  name: "res3d_branch2a"
  type: "Convolution"
  bottom: "res3c"
  top: "res3d_branch2a"
  convolution_param {
    num_output: 128
    bias_term: false
    pad: 1
    kernel_size: 3
    stride: 1
    weight_filler {
      type: "msra"
    }
  }
}
layer {
  name: "bn3d_branch2a"
  type: "BatchNorm"
  bottom: "res3d_branch2a"
  top: "res3d_branch2a"
  batch_norm_param {
    use_global_stats: false
  }
}
layer {
  name: "scale3d_branch2a"
  type: "Scale"
  bottom: "res3d_branch2a"
  top: "res3d_branch2a"
  scale_param {
    bias_term: true
  }
}
layer {
  name: "res3d_branch2a_relu"
  type: "ReLU"
  bottom: "res3d_branch2a"
  top: "res3d_branch2a"
}
layer {
  name: "res3d_branch2b"
  type: "Convolution"
  bottom: "res3d_branch2a"
  top: "res3d_branch2b"
  convolution_param {
    num_output: 128
    bias_term: false
    pad: 1
    kernel_size: 3
    stride: 1
    weight_filler {
      type: "msra"
    }
  }
}
layer {
  name: "bn3d_branch2b"
  type: "BatchNorm"
  bottom: "res3d_branch2b"
  top: "res3d_branch2b"
  batch_norm_param {
    use_global_stats: false
  }
}
layer {
  name: "scale3d_branch2b"
  type: "Scale"
  bottom: "res3d_branch2b"
  top: "res3d_branch2b"
  scale_param {
    bias_term: true
  }
}
layer {
  name: "res3d"
  type: "Eltwise"
  bottom: "res3c"
  bottom: "res3d_branch2b"
  top: "res3d"
  eltwise_param {
    operation: SUM
  }
}
layer {
  name: "res3d_relu"
  type: "ReLU"
  bottom: "res3d"
  top: "res3d"
}
layer {
  name: "res4a_branch1"
  type: "Convolution"
  bottom: "res3d"
  top: "res4a_branch1"
  convolution_param {
    num_output: 256
    bias_term: false
    pad: 0
    kernel_size: 1
    stride: 2
    weight_filler {
      type: "msra"
    }
  }
}
layer {
  name: "bn4a_branch1"
  type: "BatchNorm"
  bottom: "res4a_branch1"
  top: "res4a_branch1"
  batch_norm_param {
    use_global_stats: false
  }
}
layer {
  name: "scale4a_branch1"
  type: "Scale"
  bottom: "res4a_branch1"
  top: "res4a_branch1"
  scale_param {
    bias_term: true
  }
}
layer {
  name: "res4a_branch2a"
  type: "Convolution"
  bottom: "res3d"
  top: "res4a_branch2a"
  convolution_param {
    num_output: 256
    bias_term: false
    pad: 1
    kernel_size: 3
    stride: 2
    weight_filler {
      type: "msra"
    }
  }
}
layer {
  name: "bn4a_branch2a"
  type: "BatchNorm"
  bottom: "res4a_branch2a"
  top: "res4a_branch2a"
  batch_norm_param {
    use_global_stats: false
  }
}
layer {
  name: "scale4a_branch2a"
  type: "Scale"
  bottom: "res4a_branch2a"
  top: "res4a_branch2a"
  scale_param {
    bias_term: true
  }
}
layer {
  name: "res4a_branch2a_relu"
  type: "ReLU"
  bottom: "res4a_branch2a"
  top: "res4a_branch2a"
}
layer {
  name: "res4a_branch2b"
  type: "Convolution"
  bottom: "res4a_branch2a"
  top: "res4a_branch2b"
  convolution_param {
    num_output: 256
    bias_term: false
    pad: 1
    kernel_size: 3
    stride: 1
    weight_filler {
      type: "msra"
    }
  }
}
layer {
  name: "bn4a_branch2b"
  type: "BatchNorm"
  bottom: "res4a_branch2b"
  top: "res4a_branch2b"
  batch_norm_param {
    use_global_stats: false
  }
}
layer {
  name: "scale4a_branch2b"
  type: "Scale"
  bottom: "res4a_branch2b"
  top: "res4a_branch2b"
  scale_param {
    bias_term: true
  }
}
layer {
  name: "res4a"
  type: "Eltwise"
  bottom: "res4a_branch1"
  bottom: "res4a_branch2b"
  top: "res4a"
  eltwise_param {
    operation: SUM
  }
}
layer {
  name: "res4a_relu"
  type: "ReLU"
  bottom: "res4a"
  top: "res4a"
}
layer {
  name: "res4b_branch2a"
  type: "Convolution"
  bottom: "res4a"
  top: "res4b_branch2a"
  convolution_param {
    num_output: 256
    bias_term: false
    pad: 1
    kernel_size: 3
    stride: 1
    weight_filler {
      type: "msra"
    }
  }
}
layer {
  name: "bn4b_branch2a"
  type: "BatchNorm"
  bottom: "res4b_branch2a"
  top: "res4b_branch2a"
  batch_norm_param {
    use_global_stats: false
  }
}
layer {
  name: "scale4b_branch2a"
  type: "Scale"
  bottom: "res4b_branch2a"
  top: "res4b_branch2a"
  scale_param {
    bias_term: true
  }
}
layer {
  name: "res4b_branch2a_relu"
  type: "ReLU"
  bottom: "res4b_branch2a"
  top: "res4b_branch2a"
}
layer {
  name: "res4b_branch2b"
  type: "Convolution"
  bottom: "res4b_branch2a"
  top: "res4b_branch2b"
  convolution_param {
    num_output: 256
    bias_term: false
    pad: 1
    kernel_size: 3
    stride: 1
    weight_filler {
      type: "msra"
    }
  }
}
layer {
  name: "bn4b_branch2b"
  type: "BatchNorm"
  bottom: "res4b_branch2b"
  top: "res4b_branch2b"
  batch_norm_param {
    use_global_stats: false
  }
}
layer {
  name: "scale4b_branch2b"
  type: "Scale"
  bottom: "res4b_branch2b"
  top: "res4b_branch2b"
  scale_param {
    bias_term: true
  }
}
layer {
  name: "res4b"
  type: "Eltwise"
  bottom: "res4a"
  bottom: "res4b_branch2b"
  top: "res4b"
  eltwise_param {
    operation: SUM
  }
}
layer {
  name: "res4b_relu"
  type: "ReLU"
  bottom: "res4b"
  top: "res4b"
}
layer {
  name: "res4c_branch2a"
  type: "Convolution"
  bottom: "res4b"
  top: "res4c_branch2a"
  convolution_param {
    num_output: 256
    bias_term: false
    pad: 1
    kernel_size: 3
    stride: 1
    weight_filler {
      type: "msra"
    }
  }
}
layer {
  name: "bn4c_branch2a"
  type: "BatchNorm"
  bottom: "res4c_branch2a"
  top: "res4c_branch2a"
  batch_norm_param {
    use_global_stats: false
  }
}
layer {
  name: "scale4c_branch2a"
  type: "Scale"
  bottom: "res4c_branch2a"
  top: "res4c_branch2a"
  scale_param {
    bias_term: true
  }
}
layer {
  name: "res4c_branch2a_relu"
  type: "ReLU"
  bottom: "res4c_branch2a"
  top: "res4c_branch2a"
}
layer {
  name: "res4c_branch2b"
  type: "Convolution"
  bottom: "res4c_branch2a"
  top: "res4c_branch2b"
  convolution_param {
    num_output: 256
    bias_term: false
    pad: 1
    kernel_size: 3
    stride: 1
    weight_filler {
      type: "msra"
    }
  }
}
layer {
  name: "bn4c_branch2b"
  type: "BatchNorm"
  bottom: "res4c_branch2b"
  top: "res4c_branch2b"
  batch_norm_param {
    use_global_stats: false
  }
}
layer {
  name: "scale4c_branch2b"
  type: "Scale"
  bottom: "res4c_branch2b"
  top: "res4c_branch2b"
  scale_param {
    bias_term: true
  }
}
layer {
  name: "res4c"
  type: "Eltwise"
  bottom: "res4b"
  bottom: "res4c_branch2b"
  top: "res4c"
  eltwise_param {
    operation: SUM
  }
}
layer {
  name: "res4c_relu"
  type: "ReLU"
  bottom: "res4c"
  top: "res4c"
}
layer {
  name: "res4d_branch2a"
  type: "Convolution"
  bottom: "res4c"
  top: "res4d_branch2a"
  convolution_param {
    num_output: 256
    bias_term: false
    pad: 1
    kernel_size: 3
    stride: 1
    weight_filler {
      type: "msra"
    }
  }
}
layer {
  name: "bn4d_branch2a"
  type: "BatchNorm"
  bottom: "res4d_branch2a"
  top: "res4d_branch2a"
  batch_norm_param {
    use_global_stats: false
  }
}
layer {
  name: "scale4d_branch2a"
  type: "Scale"
  bottom: "res4d_branch2a"
  top: "res4d_branch2a"
  scale_param {
    bias_term: true
  }
}
layer {
  name: "res4d_branch2a_relu"
  type: "ReLU"
  bottom: "res4d_branch2a"
  top: "res4d_branch2a"
}
layer {
  name: "res4d_branch2b"
  type: "Convolution"
  bottom: "res4d_branch2a"
  top: "res4d_branch2b"
  convolution_param {
    num_output: 256
    bias_term: false
    pad: 1
    kernel_size: 3
    stride: 1
    weight_filler {
      type: "msra"
    }
  }
}
layer {
  name: "bn4d_branch2b"
  type: "BatchNorm"
  bottom: "res4d_branch2b"
  top: "res4d_branch2b"
  batch_norm_param {
    use_global_stats: false
  }
}
layer {
  name: "scale4d_branch2b"
  type: "Scale"
  bottom: "res4d_branch2b"
  top: "res4d_branch2b"
  scale_param {
    bias_term: true
  }
}
layer {
  name: "res4d"
  type: "Eltwise"
  bottom: "res4c"
  bottom: "res4d_branch2b"
  top: "res4d"
  eltwise_param {
    operation: SUM
  }
}
layer {
  name: "res4d_relu"
  type: "ReLU"
  bottom: "res4d"
  top: "res4d"
}
layer {
  name: "res4e_branch2a"
  type: "Convolution"
  bottom: "res4d"
  top: "res4e_branch2a"
  convolution_param {
    num_output: 256
    bias_term: false
    pad: 1
    kernel_size: 3
    stride: 1
    weight_filler {
      type: "msra"
    }
  }
}
layer {
  name: "bn4e_branch2a"
  type: "BatchNorm"
  bottom: "res4e_branch2a"
  top: "res4e_branch2a"
  batch_norm_param {
    use_global_stats: false
  }
}
layer {
  name: "scale4e_branch2a"
  type: "Scale"
  bottom: "res4e_branch2a"
  top: "res4e_branch2a"
  scale_param {
    bias_term: true
  }
}
layer {
  name: "res4e_branch2a_relu"
  type: "ReLU"
  bottom: "res4e_branch2a"
  top: "res4e_branch2a"
}
layer {
  name: "res4e_branch2b"
  type: "Convolution"
  bottom: "res4e_branch2a"
  top: "res4e_branch2b"
  convolution_param {
    num_output: 256
    bias_term: false
    pad: 1
    kernel_size: 3
    stride: 1
    weight_filler {
      type: "msra"
    }
  }
}
layer {
  name: "bn4e_branch2b"
  type: "BatchNorm"
  bottom: "res4e_branch2b"
  top: "res4e_branch2b"
  batch_norm_param {
    use_global_stats: false
  }
}
layer {
  name: "scale4e_branch2b"
  type: "Scale"
  bottom: "res4e_branch2b"
  top: "res4e_branch2b"
  scale_param {
    bias_term: true
  }
}
layer {
  name: "res4e"
  type: "Eltwise"
  bottom: "res4d"
  bottom: "res4e_branch2b"
  top: "res4e"
  eltwise_param {
    operation: SUM
  }
}
layer {
  name: "res4e_relu"
  type: "ReLU"
  bottom: "res4e"
  top: "res4e"
}
layer {
  name: "res4f_branch2a"
  type: "Convolution"
  bottom: "res4e"
  top: "res4f_branch2a"
  convolution_param {
    num_output: 256
    bias_term: false
    pad: 1
    kernel_size: 3
    stride: 1
    weight_filler {
      type: "msra"
    }
  }
}
layer {
  name: "bn4f_branch2a"
  type: "BatchNorm"
  bottom: "res4f_branch2a"
  top: "res4f_branch2a"
  batch_norm_param {
    use_global_stats: false
  }
}
layer {
  name: "scale4f_branch2a"
  type: "Scale"
  bottom: "res4f_branch2a"
  top: "res4f_branch2a"
  scale_param {
    bias_term: true
  }
}
layer {
  name: "res4f_branch2a_relu"
  type: "ReLU"
  bottom: "res4f_branch2a"
  top: "res4f_branch2a"
}
layer {
  name: "res4f_branch2b"
  type: "Convolution"
  bottom: "res4f_branch2a"
  top: "res4f_branch2b"
  convolution_param {
    num_output: 256
    bias_term: false
    pad: 1
    kernel_size: 3
    stride: 1
    weight_filler {
      type: "msra"
    }
  }
}
layer {
  name: "bn4f_branch2b"
  type: "BatchNorm"
  bottom: "res4f_branch2b"
  top: "res4f_branch2b"
  batch_norm_param {
    use_global_stats: false
  }
}
layer {
  name: "scale4f_branch2b"
  type: "Scale"
  bottom: "res4f_branch2b"
  top: "res4f_branch2b"
  scale_param {
    bias_term: true
  }
}
layer {
  name: "res4f"
  type: "Eltwise"
  bottom: "res4e"
  bottom: "res4f_branch2b"
  top: "res4f"
  eltwise_param {
    operation: SUM
  }
}
layer {
  name: "res4f_relu"
  type: "ReLU"
  bottom: "res4f"
  top: "res4f"
}
layer {
  name: "res5a_branch1"
  type: "Convolution"
  bottom: "res4f"
  top: "res5a_branch1"
  convolution_param {
    num_output: 512
    bias_term: false
    pad: 0
    kernel_size: 1
    stride: 2
    weight_filler {
      type: "msra"
    }
  }
}
layer {
  name: "bn5a_branch1"
  type: "BatchNorm"
  bottom: "res5a_branch1"
  top: "res5a_branch1"
  batch_norm_param {
    use_global_stats: false
  }
}
layer {
  name: "scale5a_branch1"
  type: "Scale"
  bottom: "res5a_branch1"
  top: "res5a_branch1"
  scale_param {
    bias_term: true
  }
}
layer {
  name: "res5a_branch2a"
  type: "Convolution"
  bottom: "res4f"
  top: "res5a_branch2a"
  convolution_param {
    num_output: 512
    bias_term: false
    pad: 1
    kernel_size: 3
    stride: 2
    weight_filler {
      type: "msra"
    }
  }
}
layer {
  name: "bn5a_branch2a"
  type: "BatchNorm"
  bottom: "res5a_branch2a"
  top: "res5a_branch2a"
  batch_norm_param {
    use_global_stats: false
  }
}
layer {
  name: "scale5a_branch2a"
  type: "Scale"
  bottom: "res5a_branch2a"
  top: "res5a_branch2a"
  scale_param {
    bias_term: true
  }
}
layer {
  name: "res5a_branch2a_relu"
  type: "ReLU"
  bottom: "res5a_branch2a"
  top: "res5a_branch2a"
}
layer {
  name: "res5a_branch2b"
  type: "Convolution"
  bottom: "res5a_branch2a"
  top: "res5a_branch2b"
  convolution_param {
    num_output: 512
    bias_term: false
    pad: 1
    kernel_size: 3
    stride: 1
    weight_filler {
      type: "msra"
    }
  }
}
layer {
  name: "bn5a_branch2b"
  type: "BatchNorm"
  bottom: "res5a_branch2b"
  top: "res5a_branch2b"
  batch_norm_param {
    use_global_stats: false
  }
}
layer {
  name: "scale5a_branch2b"
  type: "Scale"
  bottom: "res5a_branch2b"
  top: "res5a_branch2b"
  scale_param {
    bias_term: true
  }
}
layer {
  name: "res5a"
  type: "Eltwise"
  bottom: "res5a_branch1"
  bottom: "res5a_branch2b"
  top: "res5a"
  eltwise_param {
    operation: SUM
  }
}
layer {
  name: "res5a_relu"
  type: "ReLU"
  bottom: "res5a"
  top: "res5a"
}
layer {
  name: "res5b_branch2a"
  type: "Convolution"
  bottom: "res5a"
  top: "res5b_branch2a"
  convolution_param {
    num_output: 512
    bias_term: false
    pad: 1
    kernel_size: 3
    stride: 1
    weight_filler {
      type: "msra"
    }
  }
}
layer {
  name: "bn5b_branch2a"
  type: "BatchNorm"
  bottom: "res5b_branch2a"
  top: "res5b_branch2a"
  batch_norm_param {
    use_global_stats: false
  }
}
layer {
  name: "scale5b_branch2a"
  type: "Scale"
  bottom: "res5b_branch2a"
  top: "res5b_branch2a"
  scale_param {
    bias_term: true
  }
}
layer {
  name: "res5b_branch2a_relu"
  type: "ReLU"
  bottom: "res5b_branch2a"
  top: "res5b_branch2a"
}
layer {
  name: "res5b_branch2b"
  type: "Convolution"
  bottom: "res5b_branch2a"
  top: "res5b_branch2b"
  convolution_param {
    num_output: 512
    bias_term: false
    pad: 1
    kernel_size: 3
    stride: 1
    weight_filler {
      type: "msra"
    }
  }
}
layer {
  name: "bn5b_branch2b"
  type: "BatchNorm"
  bottom: "res5b_branch2b"
  top: "res5b_branch2b"
  batch_norm_param {
    use_global_stats: false
  }
}
layer {
  name: "scale5b_branch2b"
  type: "Scale"
  bottom: "res5b_branch2b"
  top: "res5b_branch2b"
  scale_param {
    bias_term: true
  }
}
layer {
  name: "res5b"
  type: "Eltwise"
  bottom: "res5a"
  bottom: "res5b_branch2b"
  top: "res5b"
  eltwise_param {
    operation: SUM
  }
}
layer {
  name: "res5b_relu"
  type: "ReLU"
  bottom: "res5b"
  top: "res5b"
}
layer {
  name: "res5c_branch2a"
  type: "Convolution"
  bottom: "res5b"
  top: "res5c_branch2a"
  convolution_param {
    num_output: 512
    bias_term: false
    pad: 1
    kernel_size: 3
    stride: 1
    weight_filler {
      type: "msra"
    }
  }
}
layer {
  name: "bn5c_branch2a"
  type: "BatchNorm"
  bottom: "res5c_branch2a"
  top: "res5c_branch2a"
  batch_norm_param {
    use_global_stats: false
  }
}
layer {
  name: "scale5c_branch2a"
  type: "Scale"
  bottom: "res5c_branch2a"
  top: "res5c_branch2a"
  scale_param {
    bias_term: true
  }
}
layer {
  name: "res5c_branch2a_relu"
  type: "ReLU"
  bottom: "res5c_branch2a"
  top: "res5c_branch2a"
}
layer {
  name: "res5c_branch2b"
  type: "Convolution"
  bottom: "res5c_branch2a"
  top: "res5c_branch2b"
  convolution_param {
    num_output: 512
    bias_term: false
    pad: 1
    kernel_size: 3
    stride: 1
    weight_filler {
      type: "msra"
    }
  }
}
layer {
  name: "bn5c_branch2b"
  type: "BatchNorm"
  bottom: "res5c_branch2b"
  top: "res5c_branch2b"
  batch_norm_param {
    use_global_stats: false
  }
}
layer {
  name: "scale5c_branch2b"
  type: "Scale"
  bottom: "res5c_branch2b"
  top: "res5c_branch2b"
  scale_param {
    bias_term: true
  }
}
layer {
  name: "res5c"
  type: "Eltwise"
  bottom: "res5b"
  bottom: "res5c_branch2b"
  top: "res5c"
  eltwise_param {
    operation: SUM
  }
}
layer {
  name: "res5c_relu"
  type: "ReLU"
  bottom: "res5c"
  top: "res5c"
}
layer {
  name: "pool5"
  type: "Pooling"
  bottom: "res5c"
  top: "pool5"
  pooling_param {
    pool: AVE
    kernel_size: 3
    stride: 1
  }
}
layer {
  name: "fc6"
  type: "InnerProduct"
  bottom: "pool5"
  top: "fc6"
  inner_product_param {
    num_output: 1024
    weight_filler {
      type: "xavier"
    }
  }
}
layer {
  name: "relu6"
  type: "ReLU"
  bottom: "fc6"
  top: "fc6"
}
layer {
  name: "fc17128"
  type: "InnerProduct"
  bottom: "fc6"
  top: "fc17128"
  inner_product_param {
    num_output: 128
    weight_filler {
      type: "gaussian"
      std: 0.1
    }
    bias_filler {
      type: "constant"
    }
  }
}
layer {
  name: "l2"
  type: "Normalization"
  bottom: "fc17128"
  top: "l2"
  normalization_param {
    norm: L2
  }
}
layer {
  name: "tripletloss"
  type: "TripletLoss"
  bottom: "l2"
  bottom: "label"
  top: "tripletloss"
  triplet_loss_param {
    alpha: 0.8
  }
}
I0718 10:52:33.812675 30641 layer_factory.hpp:77] Creating layer train-data
I0718 10:52:33.812722 30641 net.cpp:84] Creating Layer train-data
I0718 10:52:33.812737 30641 net.cpp:380] train-data -> data
I0718 10:52:33.812768 30641 net.cpp:380] train-data -> label
I0718 10:52:33.812789 30641 data_transformer.cpp:25] Loading mean file from: /alidata/home/yuanjun/code/DIGITS/digits/jobs/20180717-134051-8e1e/mean.binaryproto
I0718 10:52:33.816411 30641 image_data_layer.cpp:38] Opening file /alidata/home/yuanjun/code/Aladdin/train.txt
I0718 10:52:52.373930 30641 image_data_layer.cpp:63] A total of 59583244 images.
I0718 10:52:52.374807 30641 image_data_layer.cpp:90] output data size: 64,3,112,112
I0718 10:52:52.403677 30641 net.cpp:122] Setting up train-data
I0718 10:52:52.403734 30641 net.cpp:129] Top shape: 64 3 112 112 (2408448)
I0718 10:52:52.403743 30641 net.cpp:129] Top shape: 64 (64)
I0718 10:52:52.403746 30641 net.cpp:137] Memory required for data: 9634048
I0718 10:52:52.403758 30641 layer_factory.hpp:77] Creating layer conv1
I0718 10:52:52.403800 30641 net.cpp:84] Creating Layer conv1
I0718 10:52:52.403812 30641 net.cpp:406] conv1 <- data
I0718 10:52:52.403834 30641 net.cpp:380] conv1 -> conv1
I0718 10:52:53.188882 30641 net.cpp:122] Setting up conv1
I0718 10:52:53.188933 30641 net.cpp:129] Top shape: 64 64 112 112 (51380224)
I0718 10:52:53.188940 30641 net.cpp:137] Memory required for data: 215154944
I0718 10:52:53.188966 30641 layer_factory.hpp:77] Creating layer bn_conv1
I0718 10:52:53.188983 30641 net.cpp:84] Creating Layer bn_conv1
I0718 10:52:53.188998 30641 net.cpp:406] bn_conv1 <- conv1
I0718 10:52:53.189007 30641 net.cpp:367] bn_conv1 -> conv1 (in-place)
I0718 10:52:53.190603 30641 net.cpp:122] Setting up bn_conv1
I0718 10:52:53.190627 30641 net.cpp:129] Top shape: 64 64 112 112 (51380224)
I0718 10:52:53.190632 30641 net.cpp:137] Memory required for data: 420675840
I0718 10:52:53.190645 30641 layer_factory.hpp:77] Creating layer scale_conv1
I0718 10:52:53.190667 30641 net.cpp:84] Creating Layer scale_conv1
I0718 10:52:53.190677 30641 net.cpp:406] scale_conv1 <- conv1
I0718 10:52:53.190685 30641 net.cpp:367] scale_conv1 -> conv1 (in-place)
I0718 10:52:53.190742 30641 layer_factory.hpp:77] Creating layer scale_conv1
I0718 10:52:53.190873 30641 net.cpp:122] Setting up scale_conv1
I0718 10:52:53.190886 30641 net.cpp:129] Top shape: 64 64 112 112 (51380224)
I0718 10:52:53.190891 30641 net.cpp:137] Memory required for data: 626196736
I0718 10:52:53.190899 30641 layer_factory.hpp:77] Creating layer conv1_relu
I0718 10:52:53.190915 30641 net.cpp:84] Creating Layer conv1_relu
I0718 10:52:53.190919 30641 net.cpp:406] conv1_relu <- conv1
I0718 10:52:53.190924 30641 net.cpp:367] conv1_relu -> conv1 (in-place)
I0718 10:52:53.191331 30641 net.cpp:122] Setting up conv1_relu
I0718 10:52:53.191350 30641 net.cpp:129] Top shape: 64 64 112 112 (51380224)
I0718 10:52:53.191354 30641 net.cpp:137] Memory required for data: 831717632
I0718 10:52:53.191359 30641 layer_factory.hpp:77] Creating layer pool1
I0718 10:52:53.191370 30641 net.cpp:84] Creating Layer pool1
I0718 10:52:53.191373 30641 net.cpp:406] pool1 <- conv1
I0718 10:52:53.191380 30641 net.cpp:380] pool1 -> pool1
I0718 10:52:53.191438 30641 net.cpp:122] Setting up pool1
I0718 10:52:53.191453 30641 net.cpp:129] Top shape: 64 64 56 56 (12845056)
I0718 10:52:53.191457 30641 net.cpp:137] Memory required for data: 883097856
I0718 10:52:53.191460 30641 layer_factory.hpp:77] Creating layer pool1_pool1_0_split
I0718 10:52:53.191468 30641 net.cpp:84] Creating Layer pool1_pool1_0_split
I0718 10:52:53.191483 30641 net.cpp:406] pool1_pool1_0_split <- pool1
I0718 10:52:53.191491 30641 net.cpp:380] pool1_pool1_0_split -> pool1_pool1_0_split_0
I0718 10:52:53.191503 30641 net.cpp:380] pool1_pool1_0_split -> pool1_pool1_0_split_1
I0718 10:52:53.191558 30641 net.cpp:122] Setting up pool1_pool1_0_split
I0718 10:52:53.191614 30641 net.cpp:129] Top shape: 64 64 56 56 (12845056)
I0718 10:52:53.191624 30641 net.cpp:129] Top shape: 64 64 56 56 (12845056)
I0718 10:52:53.191629 30641 net.cpp:137] Memory required for data: 985858304
I0718 10:52:53.191635 30641 layer_factory.hpp:77] Creating layer res2a_branch1
I0718 10:52:53.191660 30641 net.cpp:84] Creating Layer res2a_branch1
I0718 10:52:53.191673 30641 net.cpp:406] res2a_branch1 <- pool1_pool1_0_split_0
I0718 10:52:53.191679 30641 net.cpp:380] res2a_branch1 -> res2a_branch1
I0718 10:52:53.193440 30641 net.cpp:122] Setting up res2a_branch1
I0718 10:52:53.193465 30641 net.cpp:129] Top shape: 64 64 56 56 (12845056)
I0718 10:52:53.193470 30641 net.cpp:137] Memory required for data: 1037238528
I0718 10:52:53.193477 30641 layer_factory.hpp:77] Creating layer bn2a_branch1
I0718 10:52:53.193486 30641 net.cpp:84] Creating Layer bn2a_branch1
I0718 10:52:53.193497 30641 net.cpp:406] bn2a_branch1 <- res2a_branch1
I0718 10:52:53.193505 30641 net.cpp:367] bn2a_branch1 -> res2a_branch1 (in-place)
I0718 10:52:53.193694 30641 net.cpp:122] Setting up bn2a_branch1
I0718 10:52:53.193711 30641 net.cpp:129] Top shape: 64 64 56 56 (12845056)
I0718 10:52:53.193714 30641 net.cpp:137] Memory required for data: 1088618752
I0718 10:52:53.193725 30641 layer_factory.hpp:77] Creating layer scale2a_branch1
I0718 10:52:53.193738 30641 net.cpp:84] Creating Layer scale2a_branch1
I0718 10:52:53.193743 30641 net.cpp:406] scale2a_branch1 <- res2a_branch1
I0718 10:52:53.193748 30641 net.cpp:367] scale2a_branch1 -> res2a_branch1 (in-place)
I0718 10:52:53.193794 30641 layer_factory.hpp:77] Creating layer scale2a_branch1
I0718 10:52:53.193917 30641 net.cpp:122] Setting up scale2a_branch1
I0718 10:52:53.193930 30641 net.cpp:129] Top shape: 64 64 56 56 (12845056)
I0718 10:52:53.193933 30641 net.cpp:137] Memory required for data: 1139998976
I0718 10:52:53.193940 30641 layer_factory.hpp:77] Creating layer res2a_branch2a
I0718 10:52:53.193954 30641 net.cpp:84] Creating Layer res2a_branch2a
I0718 10:52:53.193958 30641 net.cpp:406] res2a_branch2a <- pool1_pool1_0_split_1
I0718 10:52:53.193964 30641 net.cpp:380] res2a_branch2a -> res2a_branch2a
I0718 10:52:53.196521 30641 net.cpp:122] Setting up res2a_branch2a
I0718 10:52:53.196545 30641 net.cpp:129] Top shape: 64 64 56 56 (12845056)
I0718 10:52:53.196550 30641 net.cpp:137] Memory required for data: 1191379200
I0718 10:52:53.196557 30641 layer_factory.hpp:77] Creating layer bn2a_branch2a
I0718 10:52:53.196571 30641 net.cpp:84] Creating Layer bn2a_branch2a
I0718 10:52:53.196576 30641 net.cpp:406] bn2a_branch2a <- res2a_branch2a
I0718 10:52:53.196583 30641 net.cpp:367] bn2a_branch2a -> res2a_branch2a (in-place)
I0718 10:52:53.196770 30641 net.cpp:122] Setting up bn2a_branch2a
I0718 10:52:53.196784 30641 net.cpp:129] Top shape: 64 64 56 56 (12845056)
I0718 10:52:53.196787 30641 net.cpp:137] Memory required for data: 1242759424
I0718 10:52:53.196795 30641 layer_factory.hpp:77] Creating layer scale2a_branch2a
I0718 10:52:53.196807 30641 net.cpp:84] Creating Layer scale2a_branch2a
I0718 10:52:53.196812 30641 net.cpp:406] scale2a_branch2a <- res2a_branch2a
I0718 10:52:53.196817 30641 net.cpp:367] scale2a_branch2a -> res2a_branch2a (in-place)
I0718 10:52:53.196857 30641 layer_factory.hpp:77] Creating layer scale2a_branch2a
I0718 10:52:53.196981 30641 net.cpp:122] Setting up scale2a_branch2a
I0718 10:52:53.196993 30641 net.cpp:129] Top shape: 64 64 56 56 (12845056)
I0718 10:52:53.196997 30641 net.cpp:137] Memory required for data: 1294139648
I0718 10:52:53.197007 30641 layer_factory.hpp:77] Creating layer res2a_branch2a_relu
I0718 10:52:53.197019 30641 net.cpp:84] Creating Layer res2a_branch2a_relu
I0718 10:52:53.197024 30641 net.cpp:406] res2a_branch2a_relu <- res2a_branch2a
I0718 10:52:53.197028 30641 net.cpp:367] res2a_branch2a_relu -> res2a_branch2a (in-place)
I0718 10:52:53.197415 30641 net.cpp:122] Setting up res2a_branch2a_relu
I0718 10:52:53.197433 30641 net.cpp:129] Top shape: 64 64 56 56 (12845056)
I0718 10:52:53.197438 30641 net.cpp:137] Memory required for data: 1345519872
I0718 10:52:53.197456 30641 layer_factory.hpp:77] Creating layer res2a_branch2b
I0718 10:52:53.197474 30641 net.cpp:84] Creating Layer res2a_branch2b
I0718 10:52:53.197479 30641 net.cpp:406] res2a_branch2b <- res2a_branch2a
I0718 10:52:53.197484 30641 net.cpp:380] res2a_branch2b -> res2a_branch2b
I0718 10:52:53.200037 30641 net.cpp:122] Setting up res2a_branch2b
I0718 10:52:53.200063 30641 net.cpp:129] Top shape: 64 64 56 56 (12845056)
I0718 10:52:53.200067 30641 net.cpp:137] Memory required for data: 1396900096
I0718 10:52:53.200074 30641 layer_factory.hpp:77] Creating layer bn2a_branch2b
I0718 10:52:53.200083 30641 net.cpp:84] Creating Layer bn2a_branch2b
I0718 10:52:53.200088 30641 net.cpp:406] bn2a_branch2b <- res2a_branch2b
I0718 10:52:53.200103 30641 net.cpp:367] bn2a_branch2b -> res2a_branch2b (in-place)
I0718 10:52:53.200315 30641 net.cpp:122] Setting up bn2a_branch2b
I0718 10:52:53.200330 30641 net.cpp:129] Top shape: 64 64 56 56 (12845056)
I0718 10:52:53.200335 30641 net.cpp:137] Memory required for data: 1448280320
I0718 10:52:53.200342 30641 layer_factory.hpp:77] Creating layer scale2a_branch2b
I0718 10:52:53.200351 30641 net.cpp:84] Creating Layer scale2a_branch2b
I0718 10:52:53.200361 30641 net.cpp:406] scale2a_branch2b <- res2a_branch2b
I0718 10:52:53.200367 30641 net.cpp:367] scale2a_branch2b -> res2a_branch2b (in-place)
I0718 10:52:53.200409 30641 layer_factory.hpp:77] Creating layer scale2a_branch2b
I0718 10:52:53.200528 30641 net.cpp:122] Setting up scale2a_branch2b
I0718 10:52:53.200541 30641 net.cpp:129] Top shape: 64 64 56 56 (12845056)
I0718 10:52:53.200546 30641 net.cpp:137] Memory required for data: 1499660544
I0718 10:52:53.200551 30641 layer_factory.hpp:77] Creating layer res2a
I0718 10:52:53.200567 30641 net.cpp:84] Creating Layer res2a
I0718 10:52:53.200572 30641 net.cpp:406] res2a <- res2a_branch1
I0718 10:52:53.200585 30641 net.cpp:406] res2a <- res2a_branch2b
I0718 10:52:53.200594 30641 net.cpp:380] res2a -> res2a
I0718 10:52:53.200646 30641 net.cpp:122] Setting up res2a
I0718 10:52:53.200664 30641 net.cpp:129] Top shape: 64 64 56 56 (12845056)
I0718 10:52:53.200670 30641 net.cpp:137] Memory required for data: 1551040768
I0718 10:52:53.200676 30641 layer_factory.hpp:77] Creating layer res2a_relu
I0718 10:52:53.200695 30641 net.cpp:84] Creating Layer res2a_relu
I0718 10:52:53.200707 30641 net.cpp:406] res2a_relu <- res2a
I0718 10:52:53.200714 30641 net.cpp:367] res2a_relu -> res2a (in-place)
I0718 10:52:53.201400 30641 net.cpp:122] Setting up res2a_relu
I0718 10:52:53.201426 30641 net.cpp:129] Top shape: 64 64 56 56 (12845056)
I0718 10:52:53.201431 30641 net.cpp:137] Memory required for data: 1602420992
I0718 10:52:53.201436 30641 layer_factory.hpp:77] Creating layer res2a_res2a_relu_0_split
I0718 10:52:53.201442 30641 net.cpp:84] Creating Layer res2a_res2a_relu_0_split
I0718 10:52:53.201452 30641 net.cpp:406] res2a_res2a_relu_0_split <- res2a
I0718 10:52:53.201459 30641 net.cpp:380] res2a_res2a_relu_0_split -> res2a_res2a_relu_0_split_0
I0718 10:52:53.201467 30641 net.cpp:380] res2a_res2a_relu_0_split -> res2a_res2a_relu_0_split_1
I0718 10:52:53.201517 30641 net.cpp:122] Setting up res2a_res2a_relu_0_split
I0718 10:52:53.201529 30641 net.cpp:129] Top shape: 64 64 56 56 (12845056)
I0718 10:52:53.201534 30641 net.cpp:129] Top shape: 64 64 56 56 (12845056)
I0718 10:52:53.201537 30641 net.cpp:137] Memory required for data: 1705181440
I0718 10:52:53.201541 30641 layer_factory.hpp:77] Creating layer res2b_branch2a
I0718 10:52:53.201560 30641 net.cpp:84] Creating Layer res2b_branch2a
I0718 10:52:53.201565 30641 net.cpp:406] res2b_branch2a <- res2a_res2a_relu_0_split_0
I0718 10:52:53.201570 30641 net.cpp:380] res2b_branch2a -> res2b_branch2a
I0718 10:52:53.204267 30641 net.cpp:122] Setting up res2b_branch2a
I0718 10:52:53.204293 30641 net.cpp:129] Top shape: 64 64 56 56 (12845056)
I0718 10:52:53.204298 30641 net.cpp:137] Memory required for data: 1756561664
I0718 10:52:53.204304 30641 layer_factory.hpp:77] Creating layer bn2b_branch2a
I0718 10:52:53.204336 30641 net.cpp:84] Creating Layer bn2b_branch2a
I0718 10:52:53.204342 30641 net.cpp:406] bn2b_branch2a <- res2b_branch2a
I0718 10:52:53.204356 30641 net.cpp:367] bn2b_branch2a -> res2b_branch2a (in-place)
I0718 10:52:53.204563 30641 net.cpp:122] Setting up bn2b_branch2a
I0718 10:52:53.204577 30641 net.cpp:129] Top shape: 64 64 56 56 (12845056)
I0718 10:52:53.204581 30641 net.cpp:137] Memory required for data: 1807941888
I0718 10:52:53.204589 30641 layer_factory.hpp:77] Creating layer scale2b_branch2a
I0718 10:52:53.204601 30641 net.cpp:84] Creating Layer scale2b_branch2a
I0718 10:52:53.204604 30641 net.cpp:406] scale2b_branch2a <- res2b_branch2a
I0718 10:52:53.204609 30641 net.cpp:367] scale2b_branch2a -> res2b_branch2a (in-place)
I0718 10:52:53.204653 30641 layer_factory.hpp:77] Creating layer scale2b_branch2a
I0718 10:52:53.204782 30641 net.cpp:122] Setting up scale2b_branch2a
I0718 10:52:53.204797 30641 net.cpp:129] Top shape: 64 64 56 56 (12845056)
I0718 10:52:53.204800 30641 net.cpp:137] Memory required for data: 1859322112
I0718 10:52:53.204807 30641 layer_factory.hpp:77] Creating layer res2b_branch2a_relu
I0718 10:52:53.204818 30641 net.cpp:84] Creating Layer res2b_branch2a_relu
I0718 10:52:53.204823 30641 net.cpp:406] res2b_branch2a_relu <- res2b_branch2a
I0718 10:52:53.204828 30641 net.cpp:367] res2b_branch2a_relu -> res2b_branch2a (in-place)
I0718 10:52:53.205322 30641 net.cpp:122] Setting up res2b_branch2a_relu
I0718 10:52:53.205341 30641 net.cpp:129] Top shape: 64 64 56 56 (12845056)
I0718 10:52:53.205345 30641 net.cpp:137] Memory required for data: 1910702336
I0718 10:52:53.205349 30641 layer_factory.hpp:77] Creating layer res2b_branch2b
I0718 10:52:53.205361 30641 net.cpp:84] Creating Layer res2b_branch2b
I0718 10:52:53.205371 30641 net.cpp:406] res2b_branch2b <- res2b_branch2a
I0718 10:52:53.205381 30641 net.cpp:380] res2b_branch2b -> res2b_branch2b
I0718 10:52:53.208344 30641 net.cpp:122] Setting up res2b_branch2b
I0718 10:52:53.208369 30641 net.cpp:129] Top shape: 64 64 56 56 (12845056)
I0718 10:52:53.208374 30641 net.cpp:137] Memory required for data: 1962082560
I0718 10:52:53.208380 30641 layer_factory.hpp:77] Creating layer bn2b_branch2b
I0718 10:52:53.208398 30641 net.cpp:84] Creating Layer bn2b_branch2b
I0718 10:52:53.208403 30641 net.cpp:406] bn2b_branch2b <- res2b_branch2b
I0718 10:52:53.208410 30641 net.cpp:367] bn2b_branch2b -> res2b_branch2b (in-place)
I0718 10:52:53.208628 30641 net.cpp:122] Setting up bn2b_branch2b
I0718 10:52:53.208643 30641 net.cpp:129] Top shape: 64 64 56 56 (12845056)
I0718 10:52:53.208647 30641 net.cpp:137] Memory required for data: 2013462784
I0718 10:52:53.208662 30641 layer_factory.hpp:77] Creating layer scale2b_branch2b
I0718 10:52:53.208673 30641 net.cpp:84] Creating Layer scale2b_branch2b
I0718 10:52:53.208679 30641 net.cpp:406] scale2b_branch2b <- res2b_branch2b
I0718 10:52:53.208694 30641 net.cpp:367] scale2b_branch2b -> res2b_branch2b (in-place)
I0718 10:52:53.208747 30641 layer_factory.hpp:77] Creating layer scale2b_branch2b
I0718 10:52:53.208894 30641 net.cpp:122] Setting up scale2b_branch2b
I0718 10:52:53.208907 30641 net.cpp:129] Top shape: 64 64 56 56 (12845056)
I0718 10:52:53.208911 30641 net.cpp:137] Memory required for data: 2064843008
I0718 10:52:53.208917 30641 layer_factory.hpp:77] Creating layer res2b
I0718 10:52:53.208930 30641 net.cpp:84] Creating Layer res2b
I0718 10:52:53.208933 30641 net.cpp:406] res2b <- res2a_res2a_relu_0_split_1
I0718 10:52:53.208938 30641 net.cpp:406] res2b <- res2b_branch2b
I0718 10:52:53.208945 30641 net.cpp:380] res2b -> res2b
I0718 10:52:53.208981 30641 net.cpp:122] Setting up res2b
I0718 10:52:53.208992 30641 net.cpp:129] Top shape: 64 64 56 56 (12845056)
I0718 10:52:53.208995 30641 net.cpp:137] Memory required for data: 2116223232
I0718 10:52:53.208998 30641 layer_factory.hpp:77] Creating layer res2b_relu
I0718 10:52:53.209003 30641 net.cpp:84] Creating Layer res2b_relu
I0718 10:52:53.209014 30641 net.cpp:406] res2b_relu <- res2b
I0718 10:52:53.209022 30641 net.cpp:367] res2b_relu -> res2b (in-place)
I0718 10:52:53.209583 30641 net.cpp:122] Setting up res2b_relu
I0718 10:52:53.209607 30641 net.cpp:129] Top shape: 64 64 56 56 (12845056)
I0718 10:52:53.209614 30641 net.cpp:137] Memory required for data: 2167603456
I0718 10:52:53.209621 30641 layer_factory.hpp:77] Creating layer res2b_res2b_relu_0_split
I0718 10:52:53.209633 30641 net.cpp:84] Creating Layer res2b_res2b_relu_0_split
I0718 10:52:53.209640 30641 net.cpp:406] res2b_res2b_relu_0_split <- res2b
I0718 10:52:53.209648 30641 net.cpp:380] res2b_res2b_relu_0_split -> res2b_res2b_relu_0_split_0
I0718 10:52:53.209658 30641 net.cpp:380] res2b_res2b_relu_0_split -> res2b_res2b_relu_0_split_1
I0718 10:52:53.209730 30641 net.cpp:122] Setting up res2b_res2b_relu_0_split
I0718 10:52:53.209745 30641 net.cpp:129] Top shape: 64 64 56 56 (12845056)
I0718 10:52:53.209750 30641 net.cpp:129] Top shape: 64 64 56 56 (12845056)
I0718 10:52:53.209753 30641 net.cpp:137] Memory required for data: 2270363904
I0718 10:52:53.209764 30641 layer_factory.hpp:77] Creating layer res2c_branch2a
I0718 10:52:53.209780 30641 net.cpp:84] Creating Layer res2c_branch2a
I0718 10:52:53.209795 30641 net.cpp:406] res2c_branch2a <- res2b_res2b_relu_0_split_0
I0718 10:52:53.209808 30641 net.cpp:380] res2c_branch2a -> res2c_branch2a
I0718 10:52:53.213156 30641 net.cpp:122] Setting up res2c_branch2a
I0718 10:52:53.213197 30641 net.cpp:129] Top shape: 64 64 56 56 (12845056)
I0718 10:52:53.213203 30641 net.cpp:137] Memory required for data: 2321744128
I0718 10:52:53.213219 30641 layer_factory.hpp:77] Creating layer bn2c_branch2a
I0718 10:52:53.213239 30641 net.cpp:84] Creating Layer bn2c_branch2a
I0718 10:52:53.213256 30641 net.cpp:406] bn2c_branch2a <- res2c_branch2a
I0718 10:52:53.213263 30641 net.cpp:367] bn2c_branch2a -> res2c_branch2a (in-place)
I0718 10:52:53.213490 30641 net.cpp:122] Setting up bn2c_branch2a
I0718 10:52:53.213505 30641 net.cpp:129] Top shape: 64 64 56 56 (12845056)
I0718 10:52:53.213508 30641 net.cpp:137] Memory required for data: 2373124352
I0718 10:52:53.213516 30641 layer_factory.hpp:77] Creating layer scale2c_branch2a
I0718 10:52:53.213531 30641 net.cpp:84] Creating Layer scale2c_branch2a
I0718 10:52:53.213536 30641 net.cpp:406] scale2c_branch2a <- res2c_branch2a
I0718 10:52:53.213543 30641 net.cpp:367] scale2c_branch2a -> res2c_branch2a (in-place)
I0718 10:52:53.213593 30641 layer_factory.hpp:77] Creating layer scale2c_branch2a
I0718 10:52:53.213729 30641 net.cpp:122] Setting up scale2c_branch2a
I0718 10:52:53.213742 30641 net.cpp:129] Top shape: 64 64 56 56 (12845056)
I0718 10:52:53.213747 30641 net.cpp:137] Memory required for data: 2424504576
I0718 10:52:53.213752 30641 layer_factory.hpp:77] Creating layer res2c_branch2a_relu
I0718 10:52:53.213763 30641 net.cpp:84] Creating Layer res2c_branch2a_relu
I0718 10:52:53.213768 30641 net.cpp:406] res2c_branch2a_relu <- res2c_branch2a
I0718 10:52:53.213774 30641 net.cpp:367] res2c_branch2a_relu -> res2c_branch2a (in-place)
I0718 10:52:53.214556 30641 net.cpp:122] Setting up res2c_branch2a_relu
I0718 10:52:53.214581 30641 net.cpp:129] Top shape: 64 64 56 56 (12845056)
I0718 10:52:53.214586 30641 net.cpp:137] Memory required for data: 2475884800
I0718 10:52:53.214589 30641 layer_factory.hpp:77] Creating layer res2c_branch2b
I0718 10:52:53.214602 30641 net.cpp:84] Creating Layer res2c_branch2b
I0718 10:52:53.214613 30641 net.cpp:406] res2c_branch2b <- res2c_branch2a
I0718 10:52:53.214623 30641 net.cpp:380] res2c_branch2b -> res2c_branch2b
I0718 10:52:53.217589 30641 net.cpp:122] Setting up res2c_branch2b
I0718 10:52:53.217615 30641 net.cpp:129] Top shape: 64 64 56 56 (12845056)
I0718 10:52:53.217620 30641 net.cpp:137] Memory required for data: 2527265024
I0718 10:52:53.217627 30641 layer_factory.hpp:77] Creating layer bn2c_branch2b
I0718 10:52:53.217641 30641 net.cpp:84] Creating Layer bn2c_branch2b
I0718 10:52:53.217646 30641 net.cpp:406] bn2c_branch2b <- res2c_branch2b
I0718 10:52:53.217654 30641 net.cpp:367] bn2c_branch2b -> res2c_branch2b (in-place)
I0718 10:52:53.217891 30641 net.cpp:122] Setting up bn2c_branch2b
I0718 10:52:53.217906 30641 net.cpp:129] Top shape: 64 64 56 56 (12845056)
I0718 10:52:53.217933 30641 net.cpp:137] Memory required for data: 2578645248
I0718 10:52:53.217943 30641 layer_factory.hpp:77] Creating layer scale2c_branch2b
I0718 10:52:53.217963 30641 net.cpp:84] Creating Layer scale2c_branch2b
I0718 10:52:53.217972 30641 net.cpp:406] scale2c_branch2b <- res2c_branch2b
I0718 10:52:53.217980 30641 net.cpp:367] scale2c_branch2b -> res2c_branch2b (in-place)
I0718 10:52:53.218046 30641 layer_factory.hpp:77] Creating layer scale2c_branch2b
I0718 10:52:53.218251 30641 net.cpp:122] Setting up scale2c_branch2b
I0718 10:52:53.218271 30641 net.cpp:129] Top shape: 64 64 56 56 (12845056)
I0718 10:52:53.218277 30641 net.cpp:137] Memory required for data: 2630025472
I0718 10:52:53.218287 30641 layer_factory.hpp:77] Creating layer res2c
I0718 10:52:53.218300 30641 net.cpp:84] Creating Layer res2c
I0718 10:52:53.218315 30641 net.cpp:406] res2c <- res2b_res2b_relu_0_split_1
I0718 10:52:53.218323 30641 net.cpp:406] res2c <- res2c_branch2b
I0718 10:52:53.218338 30641 net.cpp:380] res2c -> res2c
I0718 10:52:53.218370 30641 net.cpp:122] Setting up res2c
I0718 10:52:53.218384 30641 net.cpp:129] Top shape: 64 64 56 56 (12845056)
I0718 10:52:53.218386 30641 net.cpp:137] Memory required for data: 2681405696
I0718 10:52:53.218389 30641 layer_factory.hpp:77] Creating layer res2c_relu
I0718 10:52:53.218399 30641 net.cpp:84] Creating Layer res2c_relu
I0718 10:52:53.218406 30641 net.cpp:406] res2c_relu <- res2c
I0718 10:52:53.218411 30641 net.cpp:367] res2c_relu -> res2c (in-place)
I0718 10:52:53.218883 30641 net.cpp:122] Setting up res2c_relu
I0718 10:52:53.218902 30641 net.cpp:129] Top shape: 64 64 56 56 (12845056)
I0718 10:52:53.218906 30641 net.cpp:137] Memory required for data: 2732785920
I0718 10:52:53.218910 30641 layer_factory.hpp:77] Creating layer res2c_res2c_relu_0_split
I0718 10:52:53.218919 30641 net.cpp:84] Creating Layer res2c_res2c_relu_0_split
I0718 10:52:53.218932 30641 net.cpp:406] res2c_res2c_relu_0_split <- res2c
I0718 10:52:53.218941 30641 net.cpp:380] res2c_res2c_relu_0_split -> res2c_res2c_relu_0_split_0
I0718 10:52:53.218953 30641 net.cpp:380] res2c_res2c_relu_0_split -> res2c_res2c_relu_0_split_1
I0718 10:52:53.219004 30641 net.cpp:122] Setting up res2c_res2c_relu_0_split
I0718 10:52:53.219017 30641 net.cpp:129] Top shape: 64 64 56 56 (12845056)
I0718 10:52:53.219022 30641 net.cpp:129] Top shape: 64 64 56 56 (12845056)
I0718 10:52:53.219024 30641 net.cpp:137] Memory required for data: 2835546368
I0718 10:52:53.219028 30641 layer_factory.hpp:77] Creating layer res3a_branch1
I0718 10:52:53.219039 30641 net.cpp:84] Creating Layer res3a_branch1
I0718 10:52:53.219049 30641 net.cpp:406] res3a_branch1 <- res2c_res2c_relu_0_split_0
I0718 10:52:53.219055 30641 net.cpp:380] res3a_branch1 -> res3a_branch1
I0718 10:52:53.221292 30641 net.cpp:122] Setting up res3a_branch1
I0718 10:52:53.221318 30641 net.cpp:129] Top shape: 64 128 28 28 (6422528)
I0718 10:52:53.221323 30641 net.cpp:137] Memory required for data: 2861236480
I0718 10:52:53.221329 30641 layer_factory.hpp:77] Creating layer bn3a_branch1
I0718 10:52:53.221344 30641 net.cpp:84] Creating Layer bn3a_branch1
I0718 10:52:53.221349 30641 net.cpp:406] bn3a_branch1 <- res3a_branch1
I0718 10:52:53.221354 30641 net.cpp:367] bn3a_branch1 -> res3a_branch1 (in-place)
I0718 10:52:53.222944 30641 net.cpp:122] Setting up bn3a_branch1
I0718 10:52:53.222970 30641 net.cpp:129] Top shape: 64 128 28 28 (6422528)
I0718 10:52:53.222973 30641 net.cpp:137] Memory required for data: 2886926592
I0718 10:52:53.222982 30641 layer_factory.hpp:77] Creating layer scale3a_branch1
I0718 10:52:53.223000 30641 net.cpp:84] Creating Layer scale3a_branch1
I0718 10:52:53.223004 30641 net.cpp:406] scale3a_branch1 <- res3a_branch1
I0718 10:52:53.223009 30641 net.cpp:367] scale3a_branch1 -> res3a_branch1 (in-place)
I0718 10:52:53.223067 30641 layer_factory.hpp:77] Creating layer scale3a_branch1
I0718 10:52:53.223219 30641 net.cpp:122] Setting up scale3a_branch1
I0718 10:52:53.223235 30641 net.cpp:129] Top shape: 64 128 28 28 (6422528)
I0718 10:52:53.223260 30641 net.cpp:137] Memory required for data: 2912616704
I0718 10:52:53.223268 30641 layer_factory.hpp:77] Creating layer res3a_branch2a
I0718 10:52:53.223286 30641 net.cpp:84] Creating Layer res3a_branch2a
I0718 10:52:53.223296 30641 net.cpp:406] res3a_branch2a <- res2c_res2c_relu_0_split_1
I0718 10:52:53.223305 30641 net.cpp:380] res3a_branch2a -> res3a_branch2a
I0718 10:52:53.228533 30641 net.cpp:122] Setting up res3a_branch2a
I0718 10:52:53.228561 30641 net.cpp:129] Top shape: 64 128 28 28 (6422528)
I0718 10:52:53.228569 30641 net.cpp:137] Memory required for data: 2938306816
I0718 10:52:53.228579 30641 layer_factory.hpp:77] Creating layer bn3a_branch2a
I0718 10:52:53.228592 30641 net.cpp:84] Creating Layer bn3a_branch2a
I0718 10:52:53.228610 30641 net.cpp:406] bn3a_branch2a <- res3a_branch2a
I0718 10:52:53.228621 30641 net.cpp:367] bn3a_branch2a -> res3a_branch2a (in-place)
I0718 10:52:53.228842 30641 net.cpp:122] Setting up bn3a_branch2a
I0718 10:52:53.228857 30641 net.cpp:129] Top shape: 64 128 28 28 (6422528)
I0718 10:52:53.228860 30641 net.cpp:137] Memory required for data: 2963996928
I0718 10:52:53.228868 30641 layer_factory.hpp:77] Creating layer scale3a_branch2a
I0718 10:52:53.228883 30641 net.cpp:84] Creating Layer scale3a_branch2a
I0718 10:52:53.228888 30641 net.cpp:406] scale3a_branch2a <- res3a_branch2a
I0718 10:52:53.228893 30641 net.cpp:367] scale3a_branch2a -> res3a_branch2a (in-place)
I0718 10:52:53.228943 30641 layer_factory.hpp:77] Creating layer scale3a_branch2a
I0718 10:52:53.229071 30641 net.cpp:122] Setting up scale3a_branch2a
I0718 10:52:53.229085 30641 net.cpp:129] Top shape: 64 128 28 28 (6422528)
I0718 10:52:53.229090 30641 net.cpp:137] Memory required for data: 2989687040
I0718 10:52:53.229099 30641 layer_factory.hpp:77] Creating layer res3a_branch2a_relu
I0718 10:52:53.229113 30641 net.cpp:84] Creating Layer res3a_branch2a_relu
I0718 10:52:53.229118 30641 net.cpp:406] res3a_branch2a_relu <- res3a_branch2a
I0718 10:52:53.229125 30641 net.cpp:367] res3a_branch2a_relu -> res3a_branch2a (in-place)
I0718 10:52:53.229661 30641 net.cpp:122] Setting up res3a_branch2a_relu
I0718 10:52:53.229682 30641 net.cpp:129] Top shape: 64 128 28 28 (6422528)
I0718 10:52:53.229686 30641 net.cpp:137] Memory required for data: 3015377152
I0718 10:52:53.229691 30641 layer_factory.hpp:77] Creating layer res3a_branch2b
I0718 10:52:53.229702 30641 net.cpp:84] Creating Layer res3a_branch2b
I0718 10:52:53.229712 30641 net.cpp:406] res3a_branch2b <- res3a_branch2a
I0718 10:52:53.229720 30641 net.cpp:380] res3a_branch2b -> res3a_branch2b
I0718 10:52:53.235757 30641 net.cpp:122] Setting up res3a_branch2b
I0718 10:52:53.235785 30641 net.cpp:129] Top shape: 64 128 28 28 (6422528)
I0718 10:52:53.235790 30641 net.cpp:137] Memory required for data: 3041067264
I0718 10:52:53.235797 30641 layer_factory.hpp:77] Creating layer bn3a_branch2b
I0718 10:52:53.235811 30641 net.cpp:84] Creating Layer bn3a_branch2b
I0718 10:52:53.235817 30641 net.cpp:406] bn3a_branch2b <- res3a_branch2b
I0718 10:52:53.235823 30641 net.cpp:367] bn3a_branch2b -> res3a_branch2b (in-place)
I0718 10:52:53.236040 30641 net.cpp:122] Setting up bn3a_branch2b
I0718 10:52:53.236054 30641 net.cpp:129] Top shape: 64 128 28 28 (6422528)
I0718 10:52:53.236057 30641 net.cpp:137] Memory required for data: 3066757376
I0718 10:52:53.236065 30641 layer_factory.hpp:77] Creating layer scale3a_branch2b
I0718 10:52:53.236078 30641 net.cpp:84] Creating Layer scale3a_branch2b
I0718 10:52:53.236081 30641 net.cpp:406] scale3a_branch2b <- res3a_branch2b
I0718 10:52:53.236086 30641 net.cpp:367] scale3a_branch2b -> res3a_branch2b (in-place)
I0718 10:52:53.236135 30641 layer_factory.hpp:77] Creating layer scale3a_branch2b
I0718 10:52:53.236281 30641 net.cpp:122] Setting up scale3a_branch2b
I0718 10:52:53.236296 30641 net.cpp:129] Top shape: 64 128 28 28 (6422528)
I0718 10:52:53.236300 30641 net.cpp:137] Memory required for data: 3092447488
I0718 10:52:53.236323 30641 layer_factory.hpp:77] Creating layer res3a
I0718 10:52:53.236340 30641 net.cpp:84] Creating Layer res3a
I0718 10:52:53.236367 30641 net.cpp:406] res3a <- res3a_branch1
I0718 10:52:53.236373 30641 net.cpp:406] res3a <- res3a_branch2b
I0718 10:52:53.236378 30641 net.cpp:380] res3a -> res3a
I0718 10:52:53.236428 30641 net.cpp:122] Setting up res3a
I0718 10:52:53.236449 30641 net.cpp:129] Top shape: 64 128 28 28 (6422528)
I0718 10:52:53.236456 30641 net.cpp:137] Memory required for data: 3118137600
I0718 10:52:53.236461 30641 layer_factory.hpp:77] Creating layer res3a_relu
I0718 10:52:53.236482 30641 net.cpp:84] Creating Layer res3a_relu
I0718 10:52:53.236495 30641 net.cpp:406] res3a_relu <- res3a
I0718 10:52:53.236501 30641 net.cpp:367] res3a_relu -> res3a (in-place)
I0718 10:52:53.237006 30641 net.cpp:122] Setting up res3a_relu
I0718 10:52:53.237025 30641 net.cpp:129] Top shape: 64 128 28 28 (6422528)
I0718 10:52:53.237030 30641 net.cpp:137] Memory required for data: 3143827712
I0718 10:52:53.237033 30641 layer_factory.hpp:77] Creating layer res3a_res3a_relu_0_split
I0718 10:52:53.237042 30641 net.cpp:84] Creating Layer res3a_res3a_relu_0_split
I0718 10:52:53.237052 30641 net.cpp:406] res3a_res3a_relu_0_split <- res3a
I0718 10:52:53.237058 30641 net.cpp:380] res3a_res3a_relu_0_split -> res3a_res3a_relu_0_split_0
I0718 10:52:53.237067 30641 net.cpp:380] res3a_res3a_relu_0_split -> res3a_res3a_relu_0_split_1
I0718 10:52:53.237123 30641 net.cpp:122] Setting up res3a_res3a_relu_0_split
I0718 10:52:53.237134 30641 net.cpp:129] Top shape: 64 128 28 28 (6422528)
I0718 10:52:53.237139 30641 net.cpp:129] Top shape: 64 128 28 28 (6422528)
I0718 10:52:53.237143 30641 net.cpp:137] Memory required for data: 3195207936
I0718 10:52:53.237145 30641 layer_factory.hpp:77] Creating layer res3b_branch2a
I0718 10:52:53.237156 30641 net.cpp:84] Creating Layer res3b_branch2a
I0718 10:52:53.237167 30641 net.cpp:406] res3b_branch2a <- res3a_res3a_relu_0_split_0
I0718 10:52:53.237175 30641 net.cpp:380] res3b_branch2a -> res3b_branch2a
I0718 10:52:53.243176 30641 net.cpp:122] Setting up res3b_branch2a
I0718 10:52:53.243221 30641 net.cpp:129] Top shape: 64 128 28 28 (6422528)
I0718 10:52:53.243224 30641 net.cpp:137] Memory required for data: 3220898048
I0718 10:52:53.243232 30641 layer_factory.hpp:77] Creating layer bn3b_branch2a
I0718 10:52:53.243248 30641 net.cpp:84] Creating Layer bn3b_branch2a
I0718 10:52:53.243254 30641 net.cpp:406] bn3b_branch2a <- res3b_branch2a
I0718 10:52:53.243259 30641 net.cpp:367] bn3b_branch2a -> res3b_branch2a (in-place)
I0718 10:52:53.243484 30641 net.cpp:122] Setting up bn3b_branch2a
I0718 10:52:53.243499 30641 net.cpp:129] Top shape: 64 128 28 28 (6422528)
I0718 10:52:53.243502 30641 net.cpp:137] Memory required for data: 3246588160
I0718 10:52:53.243510 30641 layer_factory.hpp:77] Creating layer scale3b_branch2a
I0718 10:52:53.243522 30641 net.cpp:84] Creating Layer scale3b_branch2a
I0718 10:52:53.243526 30641 net.cpp:406] scale3b_branch2a <- res3b_branch2a
I0718 10:52:53.243531 30641 net.cpp:367] scale3b_branch2a -> res3b_branch2a (in-place)
I0718 10:52:53.243582 30641 layer_factory.hpp:77] Creating layer scale3b_branch2a
I0718 10:52:53.243705 30641 net.cpp:122] Setting up scale3b_branch2a
I0718 10:52:53.243718 30641 net.cpp:129] Top shape: 64 128 28 28 (6422528)
I0718 10:52:53.243722 30641 net.cpp:137] Memory required for data: 3272278272
I0718 10:52:53.243728 30641 layer_factory.hpp:77] Creating layer res3b_branch2a_relu
I0718 10:52:53.243741 30641 net.cpp:84] Creating Layer res3b_branch2a_relu
I0718 10:52:53.243746 30641 net.cpp:406] res3b_branch2a_relu <- res3b_branch2a
I0718 10:52:53.243757 30641 net.cpp:367] res3b_branch2a_relu -> res3b_branch2a (in-place)
I0718 10:52:53.244534 30641 net.cpp:122] Setting up res3b_branch2a_relu
I0718 10:52:53.244559 30641 net.cpp:129] Top shape: 64 128 28 28 (6422528)
I0718 10:52:53.244562 30641 net.cpp:137] Memory required for data: 3297968384
I0718 10:52:53.244567 30641 layer_factory.hpp:77] Creating layer res3b_branch2b
I0718 10:52:53.244580 30641 net.cpp:84] Creating Layer res3b_branch2b
I0718 10:52:53.244590 30641 net.cpp:406] res3b_branch2b <- res3b_branch2a
I0718 10:52:53.244619 30641 net.cpp:380] res3b_branch2b -> res3b_branch2b
I0718 10:52:53.250521 30641 net.cpp:122] Setting up res3b_branch2b
I0718 10:52:53.250550 30641 net.cpp:129] Top shape: 64 128 28 28 (6422528)
I0718 10:52:53.250555 30641 net.cpp:137] Memory required for data: 3323658496
I0718 10:52:53.250561 30641 layer_factory.hpp:77] Creating layer bn3b_branch2b
I0718 10:52:53.250576 30641 net.cpp:84] Creating Layer bn3b_branch2b
I0718 10:52:53.250581 30641 net.cpp:406] bn3b_branch2b <- res3b_branch2b
I0718 10:52:53.250587 30641 net.cpp:367] bn3b_branch2b -> res3b_branch2b (in-place)
I0718 10:52:53.250813 30641 net.cpp:122] Setting up bn3b_branch2b
I0718 10:52:53.250828 30641 net.cpp:129] Top shape: 64 128 28 28 (6422528)
I0718 10:52:53.250833 30641 net.cpp:137] Memory required for data: 3349348608
I0718 10:52:53.250840 30641 layer_factory.hpp:77] Creating layer scale3b_branch2b
I0718 10:52:53.250852 30641 net.cpp:84] Creating Layer scale3b_branch2b
I0718 10:52:53.250856 30641 net.cpp:406] scale3b_branch2b <- res3b_branch2b
I0718 10:52:53.250861 30641 net.cpp:367] scale3b_branch2b -> res3b_branch2b (in-place)
I0718 10:52:53.250910 30641 layer_factory.hpp:77] Creating layer scale3b_branch2b
I0718 10:52:53.251036 30641 net.cpp:122] Setting up scale3b_branch2b
I0718 10:52:53.251049 30641 net.cpp:129] Top shape: 64 128 28 28 (6422528)
I0718 10:52:53.251052 30641 net.cpp:137] Memory required for data: 3375038720
I0718 10:52:53.251058 30641 layer_factory.hpp:77] Creating layer res3b
I0718 10:52:53.251072 30641 net.cpp:84] Creating Layer res3b
I0718 10:52:53.251076 30641 net.cpp:406] res3b <- res3a_res3a_relu_0_split_1
I0718 10:52:53.251080 30641 net.cpp:406] res3b <- res3b_branch2b
I0718 10:52:53.251085 30641 net.cpp:380] res3b -> res3b
I0718 10:52:53.251121 30641 net.cpp:122] Setting up res3b
I0718 10:52:53.251134 30641 net.cpp:129] Top shape: 64 128 28 28 (6422528)
I0718 10:52:53.251140 30641 net.cpp:137] Memory required for data: 3400728832
I0718 10:52:53.251153 30641 layer_factory.hpp:77] Creating layer res3b_relu
I0718 10:52:53.251163 30641 net.cpp:84] Creating Layer res3b_relu
I0718 10:52:53.251170 30641 net.cpp:406] res3b_relu <- res3b
I0718 10:52:53.251201 30641 net.cpp:367] res3b_relu -> res3b (in-place)
I0718 10:52:53.251747 30641 net.cpp:122] Setting up res3b_relu
I0718 10:52:53.251775 30641 net.cpp:129] Top shape: 64 128 28 28 (6422528)
I0718 10:52:53.251781 30641 net.cpp:137] Memory required for data: 3426418944
I0718 10:52:53.251788 30641 layer_factory.hpp:77] Creating layer res3b_res3b_relu_0_split
I0718 10:52:53.251798 30641 net.cpp:84] Creating Layer res3b_res3b_relu_0_split
I0718 10:52:53.251811 30641 net.cpp:406] res3b_res3b_relu_0_split <- res3b
I0718 10:52:53.251827 30641 net.cpp:380] res3b_res3b_relu_0_split -> res3b_res3b_relu_0_split_0
I0718 10:52:53.251840 30641 net.cpp:380] res3b_res3b_relu_0_split -> res3b_res3b_relu_0_split_1
I0718 10:52:53.251904 30641 net.cpp:122] Setting up res3b_res3b_relu_0_split
I0718 10:52:53.251919 30641 net.cpp:129] Top shape: 64 128 28 28 (6422528)
I0718 10:52:53.251924 30641 net.cpp:129] Top shape: 64 128 28 28 (6422528)
I0718 10:52:53.251927 30641 net.cpp:137] Memory required for data: 3477799168
I0718 10:52:53.251930 30641 layer_factory.hpp:77] Creating layer res3c_branch2a
I0718 10:52:53.251947 30641 net.cpp:84] Creating Layer res3c_branch2a
I0718 10:52:53.251952 30641 net.cpp:406] res3c_branch2a <- res3b_res3b_relu_0_split_0
I0718 10:52:53.251957 30641 net.cpp:380] res3c_branch2a -> res3c_branch2a
I0718 10:52:53.259371 30641 net.cpp:122] Setting up res3c_branch2a
I0718 10:52:53.259398 30641 net.cpp:129] Top shape: 64 128 28 28 (6422528)
I0718 10:52:53.259403 30641 net.cpp:137] Memory required for data: 3503489280
I0718 10:52:53.259411 30641 layer_factory.hpp:77] Creating layer bn3c_branch2a
I0718 10:52:53.259433 30641 net.cpp:84] Creating Layer bn3c_branch2a
I0718 10:52:53.259443 30641 net.cpp:406] bn3c_branch2a <- res3c_branch2a
I0718 10:52:53.259452 30641 net.cpp:367] bn3c_branch2a -> res3c_branch2a (in-place)
I0718 10:52:53.259678 30641 net.cpp:122] Setting up bn3c_branch2a
I0718 10:52:53.259713 30641 net.cpp:129] Top shape: 64 128 28 28 (6422528)
I0718 10:52:53.259717 30641 net.cpp:137] Memory required for data: 3529179392
I0718 10:52:53.259726 30641 layer_factory.hpp:77] Creating layer scale3c_branch2a
I0718 10:52:53.259739 30641 net.cpp:84] Creating Layer scale3c_branch2a
I0718 10:52:53.259743 30641 net.cpp:406] scale3c_branch2a <- res3c_branch2a
I0718 10:52:53.259752 30641 net.cpp:367] scale3c_branch2a -> res3c_branch2a (in-place)
I0718 10:52:53.259799 30641 layer_factory.hpp:77] Creating layer scale3c_branch2a
I0718 10:52:53.259928 30641 net.cpp:122] Setting up scale3c_branch2a
I0718 10:52:53.259944 30641 net.cpp:129] Top shape: 64 128 28 28 (6422528)
I0718 10:52:53.259948 30641 net.cpp:137] Memory required for data: 3554869504
I0718 10:52:53.259953 30641 layer_factory.hpp:77] Creating layer res3c_branch2a_relu
I0718 10:52:53.259964 30641 net.cpp:84] Creating Layer res3c_branch2a_relu
I0718 10:52:53.259968 30641 net.cpp:406] res3c_branch2a_relu <- res3c_branch2a
I0718 10:52:53.259974 30641 net.cpp:367] res3c_branch2a_relu -> res3c_branch2a (in-place)
I0718 10:52:53.260511 30641 net.cpp:122] Setting up res3c_branch2a_relu
I0718 10:52:53.260536 30641 net.cpp:129] Top shape: 64 128 28 28 (6422528)
I0718 10:52:53.260540 30641 net.cpp:137] Memory required for data: 3580559616
I0718 10:52:53.260545 30641 layer_factory.hpp:77] Creating layer res3c_branch2b
I0718 10:52:53.260556 30641 net.cpp:84] Creating Layer res3c_branch2b
I0718 10:52:53.260571 30641 net.cpp:406] res3c_branch2b <- res3c_branch2a
I0718 10:52:53.260579 30641 net.cpp:380] res3c_branch2b -> res3c_branch2b
I0718 10:52:53.266616 30641 net.cpp:122] Setting up res3c_branch2b
I0718 10:52:53.266644 30641 net.cpp:129] Top shape: 64 128 28 28 (6422528)
I0718 10:52:53.266649 30641 net.cpp:137] Memory required for data: 3606249728
I0718 10:52:53.266655 30641 layer_factory.hpp:77] Creating layer bn3c_branch2b
I0718 10:52:53.266665 30641 net.cpp:84] Creating Layer bn3c_branch2b
I0718 10:52:53.266679 30641 net.cpp:406] bn3c_branch2b <- res3c_branch2b
I0718 10:52:53.266685 30641 net.cpp:367] bn3c_branch2b -> res3c_branch2b (in-place)
I0718 10:52:53.266924 30641 net.cpp:122] Setting up bn3c_branch2b
I0718 10:52:53.266940 30641 net.cpp:129] Top shape: 64 128 28 28 (6422528)
I0718 10:52:53.266943 30641 net.cpp:137] Memory required for data: 3631939840
I0718 10:52:53.266952 30641 layer_factory.hpp:77] Creating layer scale3c_branch2b
I0718 10:52:53.266964 30641 net.cpp:84] Creating Layer scale3c_branch2b
I0718 10:52:53.266969 30641 net.cpp:406] scale3c_branch2b <- res3c_branch2b
I0718 10:52:53.266974 30641 net.cpp:367] scale3c_branch2b -> res3c_branch2b (in-place)
I0718 10:52:53.267031 30641 layer_factory.hpp:77] Creating layer scale3c_branch2b
I0718 10:52:53.267235 30641 net.cpp:122] Setting up scale3c_branch2b
I0718 10:52:53.267257 30641 net.cpp:129] Top shape: 64 128 28 28 (6422528)
I0718 10:52:53.267264 30641 net.cpp:137] Memory required for data: 3657629952
I0718 10:52:53.267276 30641 layer_factory.hpp:77] Creating layer res3c
I0718 10:52:53.267287 30641 net.cpp:84] Creating Layer res3c
I0718 10:52:53.267300 30641 net.cpp:406] res3c <- res3b_res3b_relu_0_split_1
I0718 10:52:53.267309 30641 net.cpp:406] res3c <- res3c_branch2b
I0718 10:52:53.267326 30641 net.cpp:380] res3c -> res3c
I0718 10:52:53.267361 30641 net.cpp:122] Setting up res3c
I0718 10:52:53.267374 30641 net.cpp:129] Top shape: 64 128 28 28 (6422528)
I0718 10:52:53.267377 30641 net.cpp:137] Memory required for data: 3683320064
I0718 10:52:53.267380 30641 layer_factory.hpp:77] Creating layer res3c_relu
I0718 10:52:53.267390 30641 net.cpp:84] Creating Layer res3c_relu
I0718 10:52:53.267398 30641 net.cpp:406] res3c_relu <- res3c
I0718 10:52:53.267406 30641 net.cpp:367] res3c_relu -> res3c (in-place)
I0718 10:52:53.268234 30641 net.cpp:122] Setting up res3c_relu
I0718 10:52:53.268262 30641 net.cpp:129] Top shape: 64 128 28 28 (6422528)
I0718 10:52:53.268270 30641 net.cpp:137] Memory required for data: 3709010176
I0718 10:52:53.268276 30641 layer_factory.hpp:77] Creating layer res3c_res3c_relu_0_split
I0718 10:52:53.268313 30641 net.cpp:84] Creating Layer res3c_res3c_relu_0_split
I0718 10:52:53.268332 30641 net.cpp:406] res3c_res3c_relu_0_split <- res3c
I0718 10:52:53.268339 30641 net.cpp:380] res3c_res3c_relu_0_split -> res3c_res3c_relu_0_split_0
I0718 10:52:53.268347 30641 net.cpp:380] res3c_res3c_relu_0_split -> res3c_res3c_relu_0_split_1
I0718 10:52:53.268406 30641 net.cpp:122] Setting up res3c_res3c_relu_0_split
I0718 10:52:53.268421 30641 net.cpp:129] Top shape: 64 128 28 28 (6422528)
I0718 10:52:53.268425 30641 net.cpp:129] Top shape: 64 128 28 28 (6422528)
I0718 10:52:53.268429 30641 net.cpp:137] Memory required for data: 3760390400
I0718 10:52:53.268432 30641 layer_factory.hpp:77] Creating layer res3d_branch2a
I0718 10:52:53.268450 30641 net.cpp:84] Creating Layer res3d_branch2a
I0718 10:52:53.268460 30641 net.cpp:406] res3d_branch2a <- res3c_res3c_relu_0_split_0
I0718 10:52:53.268468 30641 net.cpp:380] res3d_branch2a -> res3d_branch2a
I0718 10:52:53.274901 30641 net.cpp:122] Setting up res3d_branch2a
I0718 10:52:53.274930 30641 net.cpp:129] Top shape: 64 128 28 28 (6422528)
I0718 10:52:53.274935 30641 net.cpp:137] Memory required for data: 3786080512
I0718 10:52:53.274941 30641 layer_factory.hpp:77] Creating layer bn3d_branch2a
I0718 10:52:53.274951 30641 net.cpp:84] Creating Layer bn3d_branch2a
I0718 10:52:53.274962 30641 net.cpp:406] bn3d_branch2a <- res3d_branch2a
I0718 10:52:53.274969 30641 net.cpp:367] bn3d_branch2a -> res3d_branch2a (in-place)
I0718 10:52:53.275223 30641 net.cpp:122] Setting up bn3d_branch2a
I0718 10:52:53.275238 30641 net.cpp:129] Top shape: 64 128 28 28 (6422528)
I0718 10:52:53.275243 30641 net.cpp:137] Memory required for data: 3811770624
I0718 10:52:53.275251 30641 layer_factory.hpp:77] Creating layer scale3d_branch2a
I0718 10:52:53.275259 30641 net.cpp:84] Creating Layer scale3d_branch2a
I0718 10:52:53.275269 30641 net.cpp:406] scale3d_branch2a <- res3d_branch2a
I0718 10:52:53.275274 30641 net.cpp:367] scale3d_branch2a -> res3d_branch2a (in-place)
I0718 10:52:53.275324 30641 layer_factory.hpp:77] Creating layer scale3d_branch2a
I0718 10:52:53.275454 30641 net.cpp:122] Setting up scale3d_branch2a
I0718 10:52:53.275473 30641 net.cpp:129] Top shape: 64 128 28 28 (6422528)
I0718 10:52:53.275478 30641 net.cpp:137] Memory required for data: 3837460736
I0718 10:52:53.275490 30641 layer_factory.hpp:77] Creating layer res3d_branch2a_relu
I0718 10:52:53.275497 30641 net.cpp:84] Creating Layer res3d_branch2a_relu
I0718 10:52:53.275509 30641 net.cpp:406] res3d_branch2a_relu <- res3d_branch2a
I0718 10:52:53.275514 30641 net.cpp:367] res3d_branch2a_relu -> res3d_branch2a (in-place)
I0718 10:52:53.276016 30641 net.cpp:122] Setting up res3d_branch2a_relu
I0718 10:52:53.276036 30641 net.cpp:129] Top shape: 64 128 28 28 (6422528)
I0718 10:52:53.276039 30641 net.cpp:137] Memory required for data: 3863150848
I0718 10:52:53.276043 30641 layer_factory.hpp:77] Creating layer res3d_branch2b
I0718 10:52:53.276062 30641 net.cpp:84] Creating Layer res3d_branch2b
I0718 10:52:53.276067 30641 net.cpp:406] res3d_branch2b <- res3d_branch2a
I0718 10:52:53.276072 30641 net.cpp:380] res3d_branch2b -> res3d_branch2b
I0718 10:52:53.283496 30641 net.cpp:122] Setting up res3d_branch2b
I0718 10:52:53.283526 30641 net.cpp:129] Top shape: 64 128 28 28 (6422528)
I0718 10:52:53.283532 30641 net.cpp:137] Memory required for data: 3888840960
I0718 10:52:53.283540 30641 layer_factory.hpp:77] Creating layer bn3d_branch2b
I0718 10:52:53.283557 30641 net.cpp:84] Creating Layer bn3d_branch2b
I0718 10:52:53.283562 30641 net.cpp:406] bn3d_branch2b <- res3d_branch2b
I0718 10:52:53.283568 30641 net.cpp:367] bn3d_branch2b -> res3d_branch2b (in-place)
I0718 10:52:53.283813 30641 net.cpp:122] Setting up bn3d_branch2b
I0718 10:52:53.283828 30641 net.cpp:129] Top shape: 64 128 28 28 (6422528)
I0718 10:52:53.283833 30641 net.cpp:137] Memory required for data: 3914531072
I0718 10:52:53.283840 30641 layer_factory.hpp:77] Creating layer scale3d_branch2b
I0718 10:52:53.283848 30641 net.cpp:84] Creating Layer scale3d_branch2b
I0718 10:52:53.283884 30641 net.cpp:406] scale3d_branch2b <- res3d_branch2b
I0718 10:52:53.283892 30641 net.cpp:367] scale3d_branch2b -> res3d_branch2b (in-place)
I0718 10:52:53.283946 30641 layer_factory.hpp:77] Creating layer scale3d_branch2b
I0718 10:52:53.284085 30641 net.cpp:122] Setting up scale3d_branch2b
I0718 10:52:53.284098 30641 net.cpp:129] Top shape: 64 128 28 28 (6422528)
I0718 10:52:53.284102 30641 net.cpp:137] Memory required for data: 3940221184
I0718 10:52:53.284108 30641 layer_factory.hpp:77] Creating layer res3d
I0718 10:52:53.284114 30641 net.cpp:84] Creating Layer res3d
I0718 10:52:53.284124 30641 net.cpp:406] res3d <- res3c_res3c_relu_0_split_1
I0718 10:52:53.284129 30641 net.cpp:406] res3d <- res3d_branch2b
I0718 10:52:53.284137 30641 net.cpp:380] res3d -> res3d
I0718 10:52:53.284165 30641 net.cpp:122] Setting up res3d
I0718 10:52:53.284195 30641 net.cpp:129] Top shape: 64 128 28 28 (6422528)
I0718 10:52:53.284201 30641 net.cpp:137] Memory required for data: 3965911296
I0718 10:52:53.284206 30641 layer_factory.hpp:77] Creating layer res3d_relu
I0718 10:52:53.284224 30641 net.cpp:84] Creating Layer res3d_relu
I0718 10:52:53.284230 30641 net.cpp:406] res3d_relu <- res3d
I0718 10:52:53.284236 30641 net.cpp:367] res3d_relu -> res3d (in-place)
I0718 10:52:53.284757 30641 net.cpp:122] Setting up res3d_relu
I0718 10:52:53.284780 30641 net.cpp:129] Top shape: 64 128 28 28 (6422528)
I0718 10:52:53.284785 30641 net.cpp:137] Memory required for data: 3991601408
I0718 10:52:53.284793 30641 layer_factory.hpp:77] Creating layer res3d_res3d_relu_0_split
I0718 10:52:53.284801 30641 net.cpp:84] Creating Layer res3d_res3d_relu_0_split
I0718 10:52:53.284806 30641 net.cpp:406] res3d_res3d_relu_0_split <- res3d
I0718 10:52:53.284811 30641 net.cpp:380] res3d_res3d_relu_0_split -> res3d_res3d_relu_0_split_0
I0718 10:52:53.284816 30641 net.cpp:380] res3d_res3d_relu_0_split -> res3d_res3d_relu_0_split_1
I0718 10:52:53.284878 30641 net.cpp:122] Setting up res3d_res3d_relu_0_split
I0718 10:52:53.284893 30641 net.cpp:129] Top shape: 64 128 28 28 (6422528)
I0718 10:52:53.284896 30641 net.cpp:129] Top shape: 64 128 28 28 (6422528)
I0718 10:52:53.284899 30641 net.cpp:137] Memory required for data: 4042981632
I0718 10:52:53.284903 30641 layer_factory.hpp:77] Creating layer res4a_branch1
I0718 10:52:53.284914 30641 net.cpp:84] Creating Layer res4a_branch1
I0718 10:52:53.284922 30641 net.cpp:406] res4a_branch1 <- res3d_res3d_relu_0_split_0
I0718 10:52:53.284935 30641 net.cpp:380] res4a_branch1 -> res4a_branch1
I0718 10:52:53.288112 30641 net.cpp:122] Setting up res4a_branch1
I0718 10:52:53.288139 30641 net.cpp:129] Top shape: 64 256 14 14 (3211264)
I0718 10:52:53.288144 30641 net.cpp:137] Memory required for data: 4055826688
I0718 10:52:53.288151 30641 layer_factory.hpp:77] Creating layer bn4a_branch1
I0718 10:52:53.288164 30641 net.cpp:84] Creating Layer bn4a_branch1
I0718 10:52:53.288169 30641 net.cpp:406] bn4a_branch1 <- res4a_branch1
I0718 10:52:53.288193 30641 net.cpp:367] bn4a_branch1 -> res4a_branch1 (in-place)
I0718 10:52:53.288450 30641 net.cpp:122] Setting up bn4a_branch1
I0718 10:52:53.288466 30641 net.cpp:129] Top shape: 64 256 14 14 (3211264)
I0718 10:52:53.288470 30641 net.cpp:137] Memory required for data: 4068671744
I0718 10:52:53.288478 30641 layer_factory.hpp:77] Creating layer scale4a_branch1
I0718 10:52:53.288491 30641 net.cpp:84] Creating Layer scale4a_branch1
I0718 10:52:53.288496 30641 net.cpp:406] scale4a_branch1 <- res4a_branch1
I0718 10:52:53.288502 30641 net.cpp:367] scale4a_branch1 -> res4a_branch1 (in-place)
I0718 10:52:53.288554 30641 layer_factory.hpp:77] Creating layer scale4a_branch1
I0718 10:52:53.288689 30641 net.cpp:122] Setting up scale4a_branch1
I0718 10:52:53.288702 30641 net.cpp:129] Top shape: 64 256 14 14 (3211264)
I0718 10:52:53.288705 30641 net.cpp:137] Memory required for data: 4081516800
I0718 10:52:53.288712 30641 layer_factory.hpp:77] Creating layer res4a_branch2a
I0718 10:52:53.288727 30641 net.cpp:84] Creating Layer res4a_branch2a
I0718 10:52:53.288733 30641 net.cpp:406] res4a_branch2a <- res3d_res3d_relu_0_split_1
I0718 10:52:53.288759 30641 net.cpp:380] res4a_branch2a -> res4a_branch2a
I0718 10:52:53.298100 30641 net.cpp:122] Setting up res4a_branch2a
I0718 10:52:53.298127 30641 net.cpp:129] Top shape: 64 256 14 14 (3211264)
I0718 10:52:53.298132 30641 net.cpp:137] Memory required for data: 4094361856
I0718 10:52:53.298138 30641 layer_factory.hpp:77] Creating layer bn4a_branch2a
I0718 10:52:53.298151 30641 net.cpp:84] Creating Layer bn4a_branch2a
I0718 10:52:53.298162 30641 net.cpp:406] bn4a_branch2a <- res4a_branch2a
I0718 10:52:53.298168 30641 net.cpp:367] bn4a_branch2a -> res4a_branch2a (in-place)
I0718 10:52:53.298444 30641 net.cpp:122] Setting up bn4a_branch2a
I0718 10:52:53.298462 30641 net.cpp:129] Top shape: 64 256 14 14 (3211264)
I0718 10:52:53.298466 30641 net.cpp:137] Memory required for data: 4107206912
I0718 10:52:53.298475 30641 layer_factory.hpp:77] Creating layer scale4a_branch2a
I0718 10:52:53.298491 30641 net.cpp:84] Creating Layer scale4a_branch2a
I0718 10:52:53.298496 30641 net.cpp:406] scale4a_branch2a <- res4a_branch2a
I0718 10:52:53.298501 30641 net.cpp:367] scale4a_branch2a -> res4a_branch2a (in-place)
I0718 10:52:53.298555 30641 layer_factory.hpp:77] Creating layer scale4a_branch2a
I0718 10:52:53.298686 30641 net.cpp:122] Setting up scale4a_branch2a
I0718 10:52:53.298698 30641 net.cpp:129] Top shape: 64 256 14 14 (3211264)
I0718 10:52:53.298702 30641 net.cpp:137] Memory required for data: 4120051968
I0718 10:52:53.298708 30641 layer_factory.hpp:77] Creating layer res4a_branch2a_relu
I0718 10:52:53.298719 30641 net.cpp:84] Creating Layer res4a_branch2a_relu
I0718 10:52:53.298723 30641 net.cpp:406] res4a_branch2a_relu <- res4a_branch2a
I0718 10:52:53.298730 30641 net.cpp:367] res4a_branch2a_relu -> res4a_branch2a (in-place)
I0718 10:52:53.299532 30641 net.cpp:122] Setting up res4a_branch2a_relu
I0718 10:52:53.299556 30641 net.cpp:129] Top shape: 64 256 14 14 (3211264)
I0718 10:52:53.299561 30641 net.cpp:137] Memory required for data: 4132897024
I0718 10:52:53.299566 30641 layer_factory.hpp:77] Creating layer res4a_branch2b
I0718 10:52:53.299583 30641 net.cpp:84] Creating Layer res4a_branch2b
I0718 10:52:53.299597 30641 net.cpp:406] res4a_branch2b <- res4a_branch2a
I0718 10:52:53.299607 30641 net.cpp:380] res4a_branch2b -> res4a_branch2b
I0718 10:52:53.318011 30641 net.cpp:122] Setting up res4a_branch2b
I0718 10:52:53.318042 30641 net.cpp:129] Top shape: 64 256 14 14 (3211264)
I0718 10:52:53.318048 30641 net.cpp:137] Memory required for data: 4145742080
I0718 10:52:53.318054 30641 layer_factory.hpp:77] Creating layer bn4a_branch2b
I0718 10:52:53.318066 30641 net.cpp:84] Creating Layer bn4a_branch2b
I0718 10:52:53.318079 30641 net.cpp:406] bn4a_branch2b <- res4a_branch2b
I0718 10:52:53.318086 30641 net.cpp:367] bn4a_branch2b -> res4a_branch2b (in-place)
I0718 10:52:53.318346 30641 net.cpp:122] Setting up bn4a_branch2b
I0718 10:52:53.318362 30641 net.cpp:129] Top shape: 64 256 14 14 (3211264)
I0718 10:52:53.318367 30641 net.cpp:137] Memory required for data: 4158587136
I0718 10:52:53.318375 30641 layer_factory.hpp:77] Creating layer scale4a_branch2b
I0718 10:52:53.318382 30641 net.cpp:84] Creating Layer scale4a_branch2b
I0718 10:52:53.318393 30641 net.cpp:406] scale4a_branch2b <- res4a_branch2b
I0718 10:52:53.318400 30641 net.cpp:367] scale4a_branch2b -> res4a_branch2b (in-place)
I0718 10:52:53.318447 30641 layer_factory.hpp:77] Creating layer scale4a_branch2b
I0718 10:52:53.318580 30641 net.cpp:122] Setting up scale4a_branch2b
I0718 10:52:53.318593 30641 net.cpp:129] Top shape: 64 256 14 14 (3211264)
I0718 10:52:53.318596 30641 net.cpp:137] Memory required for data: 4171432192
I0718 10:52:53.318603 30641 layer_factory.hpp:77] Creating layer res4a
I0718 10:52:53.318615 30641 net.cpp:84] Creating Layer res4a
I0718 10:52:53.318620 30641 net.cpp:406] res4a <- res4a_branch1
I0718 10:52:53.318624 30641 net.cpp:406] res4a <- res4a_branch2b
I0718 10:52:53.318632 30641 net.cpp:380] res4a -> res4a
I0718 10:52:53.318660 30641 net.cpp:122] Setting up res4a
I0718 10:52:53.318675 30641 net.cpp:129] Top shape: 64 256 14 14 (3211264)
I0718 10:52:53.318711 30641 net.cpp:137] Memory required for data: 4184277248
I0718 10:52:53.318716 30641 layer_factory.hpp:77] Creating layer res4a_relu
I0718 10:52:53.318722 30641 net.cpp:84] Creating Layer res4a_relu
I0718 10:52:53.318732 30641 net.cpp:406] res4a_relu <- res4a
I0718 10:52:53.318735 30641 net.cpp:367] res4a_relu -> res4a (in-place)
I0718 10:52:53.319252 30641 net.cpp:122] Setting up res4a_relu
I0718 10:52:53.319269 30641 net.cpp:129] Top shape: 64 256 14 14 (3211264)
I0718 10:52:53.319274 30641 net.cpp:137] Memory required for data: 4197122304
I0718 10:52:53.319278 30641 layer_factory.hpp:77] Creating layer res4a_res4a_relu_0_split
I0718 10:52:53.319288 30641 net.cpp:84] Creating Layer res4a_res4a_relu_0_split
I0718 10:52:53.319298 30641 net.cpp:406] res4a_res4a_relu_0_split <- res4a
I0718 10:52:53.319303 30641 net.cpp:380] res4a_res4a_relu_0_split -> res4a_res4a_relu_0_split_0
I0718 10:52:53.319309 30641 net.cpp:380] res4a_res4a_relu_0_split -> res4a_res4a_relu_0_split_1
I0718 10:52:53.319363 30641 net.cpp:122] Setting up res4a_res4a_relu_0_split
I0718 10:52:53.319376 30641 net.cpp:129] Top shape: 64 256 14 14 (3211264)
I0718 10:52:53.319381 30641 net.cpp:129] Top shape: 64 256 14 14 (3211264)
I0718 10:52:53.319384 30641 net.cpp:137] Memory required for data: 4222812416
I0718 10:52:53.319387 30641 layer_factory.hpp:77] Creating layer res4b_branch2a
I0718 10:52:53.319398 30641 net.cpp:84] Creating Layer res4b_branch2a
I0718 10:52:53.319407 30641 net.cpp:406] res4b_branch2a <- res4a_res4a_relu_0_split_0
I0718 10:52:53.319416 30641 net.cpp:380] res4b_branch2a -> res4b_branch2a
I0718 10:52:53.337836 30641 net.cpp:122] Setting up res4b_branch2a
I0718 10:52:53.337868 30641 net.cpp:129] Top shape: 64 256 14 14 (3211264)
I0718 10:52:53.337873 30641 net.cpp:137] Memory required for data: 4235657472
I0718 10:52:53.337880 30641 layer_factory.hpp:77] Creating layer bn4b_branch2a
I0718 10:52:53.337889 30641 net.cpp:84] Creating Layer bn4b_branch2a
I0718 10:52:53.337910 30641 net.cpp:406] bn4b_branch2a <- res4b_branch2a
I0718 10:52:53.337918 30641 net.cpp:367] bn4b_branch2a -> res4b_branch2a (in-place)
I0718 10:52:53.338161 30641 net.cpp:122] Setting up bn4b_branch2a
I0718 10:52:53.338176 30641 net.cpp:129] Top shape: 64 256 14 14 (3211264)
I0718 10:52:53.338196 30641 net.cpp:137] Memory required for data: 4248502528
I0718 10:52:53.338208 30641 layer_factory.hpp:77] Creating layer scale4b_branch2a
I0718 10:52:53.338222 30641 net.cpp:84] Creating Layer scale4b_branch2a
I0718 10:52:53.338227 30641 net.cpp:406] scale4b_branch2a <- res4b_branch2a
I0718 10:52:53.338232 30641 net.cpp:367] scale4b_branch2a -> res4b_branch2a (in-place)
I0718 10:52:53.338284 30641 layer_factory.hpp:77] Creating layer scale4b_branch2a
I0718 10:52:53.338423 30641 net.cpp:122] Setting up scale4b_branch2a
I0718 10:52:53.338435 30641 net.cpp:129] Top shape: 64 256 14 14 (3211264)
I0718 10:52:53.338439 30641 net.cpp:137] Memory required for data: 4261347584
I0718 10:52:53.338445 30641 layer_factory.hpp:77] Creating layer res4b_branch2a_relu
I0718 10:52:53.338459 30641 net.cpp:84] Creating Layer res4b_branch2a_relu
I0718 10:52:53.338464 30641 net.cpp:406] res4b_branch2a_relu <- res4b_branch2a
I0718 10:52:53.338469 30641 net.cpp:367] res4b_branch2a_relu -> res4b_branch2a (in-place)
I0718 10:52:53.338975 30641 net.cpp:122] Setting up res4b_branch2a_relu
I0718 10:52:53.338994 30641 net.cpp:129] Top shape: 64 256 14 14 (3211264)
I0718 10:52:53.338999 30641 net.cpp:137] Memory required for data: 4274192640
I0718 10:52:53.339002 30641 layer_factory.hpp:77] Creating layer res4b_branch2b
I0718 10:52:53.339017 30641 net.cpp:84] Creating Layer res4b_branch2b
I0718 10:52:53.339027 30641 net.cpp:406] res4b_branch2b <- res4b_branch2a
I0718 10:52:53.339035 30641 net.cpp:380] res4b_branch2b -> res4b_branch2b
I0718 10:52:53.357476 30641 net.cpp:122] Setting up res4b_branch2b
I0718 10:52:53.357508 30641 net.cpp:129] Top shape: 64 256 14 14 (3211264)
I0718 10:52:53.357513 30641 net.cpp:137] Memory required for data: 4287037696
I0718 10:52:53.357545 30641 layer_factory.hpp:77] Creating layer bn4b_branch2b
I0718 10:52:53.357565 30641 net.cpp:84] Creating Layer bn4b_branch2b
I0718 10:52:53.357571 30641 net.cpp:406] bn4b_branch2b <- res4b_branch2b
I0718 10:52:53.357578 30641 net.cpp:367] bn4b_branch2b -> res4b_branch2b (in-place)
I0718 10:52:53.357823 30641 net.cpp:122] Setting up bn4b_branch2b
I0718 10:52:53.357838 30641 net.cpp:129] Top shape: 64 256 14 14 (3211264)
I0718 10:52:53.357841 30641 net.cpp:137] Memory required for data: 4299882752
I0718 10:52:53.357879 30641 layer_factory.hpp:77] Creating layer scale4b_branch2b
I0718 10:52:53.357894 30641 net.cpp:84] Creating Layer scale4b_branch2b
I0718 10:52:53.357908 30641 net.cpp:406] scale4b_branch2b <- res4b_branch2b
I0718 10:52:53.357913 30641 net.cpp:367] scale4b_branch2b -> res4b_branch2b (in-place)
I0718 10:52:53.357973 30641 layer_factory.hpp:77] Creating layer scale4b_branch2b
I0718 10:52:53.358132 30641 net.cpp:122] Setting up scale4b_branch2b
I0718 10:52:53.358146 30641 net.cpp:129] Top shape: 64 256 14 14 (3211264)
I0718 10:52:53.358150 30641 net.cpp:137] Memory required for data: 4312727808
I0718 10:52:53.358156 30641 layer_factory.hpp:77] Creating layer res4b
I0718 10:52:53.358165 30641 net.cpp:84] Creating Layer res4b
I0718 10:52:53.358175 30641 net.cpp:406] res4b <- res4a_res4a_relu_0_split_1
I0718 10:52:53.358201 30641 net.cpp:406] res4b <- res4b_branch2b
I0718 10:52:53.358206 30641 net.cpp:380] res4b -> res4b
I0718 10:52:53.358239 30641 net.cpp:122] Setting up res4b
I0718 10:52:53.358252 30641 net.cpp:129] Top shape: 64 256 14 14 (3211264)
I0718 10:52:53.358254 30641 net.cpp:137] Memory required for data: 4325572864
I0718 10:52:53.358258 30641 layer_factory.hpp:77] Creating layer res4b_relu
I0718 10:52:53.358263 30641 net.cpp:84] Creating Layer res4b_relu
I0718 10:52:53.358278 30641 net.cpp:406] res4b_relu <- res4b
I0718 10:52:53.358289 30641 net.cpp:367] res4b_relu -> res4b (in-place)
I0718 10:52:53.358811 30641 net.cpp:122] Setting up res4b_relu
I0718 10:52:53.358834 30641 net.cpp:129] Top shape: 64 256 14 14 (3211264)
I0718 10:52:53.358841 30641 net.cpp:137] Memory required for data: 4338417920
I0718 10:52:53.358846 30641 layer_factory.hpp:77] Creating layer res4b_res4b_relu_0_split
I0718 10:52:53.358856 30641 net.cpp:84] Creating Layer res4b_res4b_relu_0_split
I0718 10:52:53.358870 30641 net.cpp:406] res4b_res4b_relu_0_split <- res4b
I0718 10:52:53.358886 30641 net.cpp:380] res4b_res4b_relu_0_split -> res4b_res4b_relu_0_split_0
I0718 10:52:53.358901 30641 net.cpp:380] res4b_res4b_relu_0_split -> res4b_res4b_relu_0_split_1
I0718 10:52:53.358959 30641 net.cpp:122] Setting up res4b_res4b_relu_0_split
I0718 10:52:53.358973 30641 net.cpp:129] Top shape: 64 256 14 14 (3211264)
I0718 10:52:53.358976 30641 net.cpp:129] Top shape: 64 256 14 14 (3211264)
I0718 10:52:53.358980 30641 net.cpp:137] Memory required for data: 4364108032
I0718 10:52:53.358983 30641 layer_factory.hpp:77] Creating layer res4c_branch2a
I0718 10:52:53.358997 30641 net.cpp:84] Creating Layer res4c_branch2a
I0718 10:52:53.359006 30641 net.cpp:406] res4c_branch2a <- res4b_res4b_relu_0_split_0
I0718 10:52:53.359014 30641 net.cpp:380] res4c_branch2a -> res4c_branch2a
I0718 10:52:53.377481 30641 net.cpp:122] Setting up res4c_branch2a
I0718 10:52:53.377511 30641 net.cpp:129] Top shape: 64 256 14 14 (3211264)
I0718 10:52:53.377516 30641 net.cpp:137] Memory required for data: 4376953088
I0718 10:52:53.377522 30641 layer_factory.hpp:77] Creating layer bn4c_branch2a
I0718 10:52:53.377534 30641 net.cpp:84] Creating Layer bn4c_branch2a
I0718 10:52:53.377547 30641 net.cpp:406] bn4c_branch2a <- res4c_branch2a
I0718 10:52:53.377555 30641 net.cpp:367] bn4c_branch2a -> res4c_branch2a (in-place)
I0718 10:52:53.377797 30641 net.cpp:122] Setting up bn4c_branch2a
I0718 10:52:53.377811 30641 net.cpp:129] Top shape: 64 256 14 14 (3211264)
I0718 10:52:53.377815 30641 net.cpp:137] Memory required for data: 4389798144
I0718 10:52:53.377823 30641 layer_factory.hpp:77] Creating layer scale4c_branch2a
I0718 10:52:53.377832 30641 net.cpp:84] Creating Layer scale4c_branch2a
I0718 10:52:53.377861 30641 net.cpp:406] scale4c_branch2a <- res4c_branch2a
I0718 10:52:53.377868 30641 net.cpp:367] scale4c_branch2a -> res4c_branch2a (in-place)
I0718 10:52:53.377921 30641 layer_factory.hpp:77] Creating layer scale4c_branch2a
I0718 10:52:53.378070 30641 net.cpp:122] Setting up scale4c_branch2a
I0718 10:52:53.378087 30641 net.cpp:129] Top shape: 64 256 14 14 (3211264)
I0718 10:52:53.378089 30641 net.cpp:137] Memory required for data: 4402643200
I0718 10:52:53.378096 30641 layer_factory.hpp:77] Creating layer res4c_branch2a_relu
I0718 10:52:53.378108 30641 net.cpp:84] Creating Layer res4c_branch2a_relu
I0718 10:52:53.378113 30641 net.cpp:406] res4c_branch2a_relu <- res4c_branch2a
I0718 10:52:53.378119 30641 net.cpp:367] res4c_branch2a_relu -> res4c_branch2a (in-place)
I0718 10:52:53.378958 30641 net.cpp:122] Setting up res4c_branch2a_relu
I0718 10:52:53.378983 30641 net.cpp:129] Top shape: 64 256 14 14 (3211264)
I0718 10:52:53.378988 30641 net.cpp:137] Memory required for data: 4415488256
I0718 10:52:53.378993 30641 layer_factory.hpp:77] Creating layer res4c_branch2b
I0718 10:52:53.379004 30641 net.cpp:84] Creating Layer res4c_branch2b
I0718 10:52:53.379019 30641 net.cpp:406] res4c_branch2b <- res4c_branch2a
I0718 10:52:53.379026 30641 net.cpp:380] res4c_branch2b -> res4c_branch2b
I0718 10:52:53.397485 30641 net.cpp:122] Setting up res4c_branch2b
I0718 10:52:53.397512 30641 net.cpp:129] Top shape: 64 256 14 14 (3211264)
I0718 10:52:53.397517 30641 net.cpp:137] Memory required for data: 4428333312
I0718 10:52:53.397524 30641 layer_factory.hpp:77] Creating layer bn4c_branch2b
I0718 10:52:53.397534 30641 net.cpp:84] Creating Layer bn4c_branch2b
I0718 10:52:53.397548 30641 net.cpp:406] bn4c_branch2b <- res4c_branch2b
I0718 10:52:53.397554 30641 net.cpp:367] bn4c_branch2b -> res4c_branch2b (in-place)
I0718 10:52:53.397804 30641 net.cpp:122] Setting up bn4c_branch2b
I0718 10:52:53.397819 30641 net.cpp:129] Top shape: 64 256 14 14 (3211264)
I0718 10:52:53.397824 30641 net.cpp:137] Memory required for data: 4441178368
I0718 10:52:53.397831 30641 layer_factory.hpp:77] Creating layer scale4c_branch2b
I0718 10:52:53.397846 30641 net.cpp:84] Creating Layer scale4c_branch2b
I0718 10:52:53.397850 30641 net.cpp:406] scale4c_branch2b <- res4c_branch2b
I0718 10:52:53.397855 30641 net.cpp:367] scale4c_branch2b -> res4c_branch2b (in-place)
I0718 10:52:53.397905 30641 layer_factory.hpp:77] Creating layer scale4c_branch2b
I0718 10:52:53.398042 30641 net.cpp:122] Setting up scale4c_branch2b
I0718 10:52:53.398056 30641 net.cpp:129] Top shape: 64 256 14 14 (3211264)
I0718 10:52:53.398059 30641 net.cpp:137] Memory required for data: 4454023424
I0718 10:52:53.398066 30641 layer_factory.hpp:77] Creating layer res4c
I0718 10:52:53.398078 30641 net.cpp:84] Creating Layer res4c
I0718 10:52:53.398083 30641 net.cpp:406] res4c <- res4b_res4b_relu_0_split_1
I0718 10:52:53.398087 30641 net.cpp:406] res4c <- res4c_branch2b
I0718 10:52:53.398100 30641 net.cpp:380] res4c -> res4c
I0718 10:52:53.398135 30641 net.cpp:122] Setting up res4c
I0718 10:52:53.398147 30641 net.cpp:129] Top shape: 64 256 14 14 (3211264)
I0718 10:52:53.398150 30641 net.cpp:137] Memory required for data: 4466868480
I0718 10:52:53.398154 30641 layer_factory.hpp:77] Creating layer res4c_relu
I0718 10:52:53.398160 30641 net.cpp:84] Creating Layer res4c_relu
I0718 10:52:53.398169 30641 net.cpp:406] res4c_relu <- res4c
I0718 10:52:53.398174 30641 net.cpp:367] res4c_relu -> res4c (in-place)
I0718 10:52:53.398720 30641 net.cpp:122] Setting up res4c_relu
I0718 10:52:53.398744 30641 net.cpp:129] Top shape: 64 256 14 14 (3211264)
I0718 10:52:53.398756 30641 net.cpp:137] Memory required for data: 4479713536
I0718 10:52:53.398759 30641 layer_factory.hpp:77] Creating layer res4c_res4c_relu_0_split
I0718 10:52:53.398767 30641 net.cpp:84] Creating Layer res4c_res4c_relu_0_split
I0718 10:52:53.398772 30641 net.cpp:406] res4c_res4c_relu_0_split <- res4c
I0718 10:52:53.398777 30641 net.cpp:380] res4c_res4c_relu_0_split -> res4c_res4c_relu_0_split_0
I0718 10:52:53.398813 30641 net.cpp:380] res4c_res4c_relu_0_split -> res4c_res4c_relu_0_split_1
I0718 10:52:53.398872 30641 net.cpp:122] Setting up res4c_res4c_relu_0_split
I0718 10:52:53.398885 30641 net.cpp:129] Top shape: 64 256 14 14 (3211264)
I0718 10:52:53.398890 30641 net.cpp:129] Top shape: 64 256 14 14 (3211264)
I0718 10:52:53.398893 30641 net.cpp:137] Memory required for data: 4505403648
I0718 10:52:53.398896 30641 layer_factory.hpp:77] Creating layer res4d_branch2a
I0718 10:52:53.398912 30641 net.cpp:84] Creating Layer res4d_branch2a
I0718 10:52:53.398917 30641 net.cpp:406] res4d_branch2a <- res4c_res4c_relu_0_split_0
I0718 10:52:53.398924 30641 net.cpp:380] res4d_branch2a -> res4d_branch2a
I0718 10:52:53.417423 30641 net.cpp:122] Setting up res4d_branch2a
I0718 10:52:53.417454 30641 net.cpp:129] Top shape: 64 256 14 14 (3211264)
I0718 10:52:53.417459 30641 net.cpp:137] Memory required for data: 4518248704
I0718 10:52:53.417467 30641 layer_factory.hpp:77] Creating layer bn4d_branch2a
I0718 10:52:53.417479 30641 net.cpp:84] Creating Layer bn4d_branch2a
I0718 10:52:53.417484 30641 net.cpp:406] bn4d_branch2a <- res4d_branch2a
I0718 10:52:53.417490 30641 net.cpp:367] bn4d_branch2a -> res4d_branch2a (in-place)
I0718 10:52:53.417747 30641 net.cpp:122] Setting up bn4d_branch2a
I0718 10:52:53.417762 30641 net.cpp:129] Top shape: 64 256 14 14 (3211264)
I0718 10:52:53.417765 30641 net.cpp:137] Memory required for data: 4531093760
I0718 10:52:53.417775 30641 layer_factory.hpp:77] Creating layer scale4d_branch2a
I0718 10:52:53.417788 30641 net.cpp:84] Creating Layer scale4d_branch2a
I0718 10:52:53.417793 30641 net.cpp:406] scale4d_branch2a <- res4d_branch2a
I0718 10:52:53.417798 30641 net.cpp:367] scale4d_branch2a -> res4d_branch2a (in-place)
I0718 10:52:53.417850 30641 layer_factory.hpp:77] Creating layer scale4d_branch2a
I0718 10:52:53.417989 30641 net.cpp:122] Setting up scale4d_branch2a
I0718 10:52:53.418001 30641 net.cpp:129] Top shape: 64 256 14 14 (3211264)
I0718 10:52:53.418004 30641 net.cpp:137] Memory required for data: 4543938816
I0718 10:52:53.418010 30641 layer_factory.hpp:77] Creating layer res4d_branch2a_relu
I0718 10:52:53.418025 30641 net.cpp:84] Creating Layer res4d_branch2a_relu
I0718 10:52:53.418030 30641 net.cpp:406] res4d_branch2a_relu <- res4d_branch2a
I0718 10:52:53.418033 30641 net.cpp:367] res4d_branch2a_relu -> res4d_branch2a (in-place)
I0718 10:52:53.418555 30641 net.cpp:122] Setting up res4d_branch2a_relu
I0718 10:52:53.418576 30641 net.cpp:129] Top shape: 64 256 14 14 (3211264)
I0718 10:52:53.418579 30641 net.cpp:137] Memory required for data: 4556783872
I0718 10:52:53.418583 30641 layer_factory.hpp:77] Creating layer res4d_branch2b
I0718 10:52:53.418597 30641 net.cpp:84] Creating Layer res4d_branch2b
I0718 10:52:53.418609 30641 net.cpp:406] res4d_branch2b <- res4d_branch2a
I0718 10:52:53.418617 30641 net.cpp:380] res4d_branch2b -> res4d_branch2b
I0718 10:52:53.437367 30641 net.cpp:122] Setting up res4d_branch2b
I0718 10:52:53.437397 30641 net.cpp:129] Top shape: 64 256 14 14 (3211264)
I0718 10:52:53.437400 30641 net.cpp:137] Memory required for data: 4569628928
I0718 10:52:53.437408 30641 layer_factory.hpp:77] Creating layer bn4d_branch2b
I0718 10:52:53.437420 30641 net.cpp:84] Creating Layer bn4d_branch2b
I0718 10:52:53.437433 30641 net.cpp:406] bn4d_branch2b <- res4d_branch2b
I0718 10:52:53.437440 30641 net.cpp:367] bn4d_branch2b -> res4d_branch2b (in-place)
I0718 10:52:53.437695 30641 net.cpp:122] Setting up bn4d_branch2b
I0718 10:52:53.437710 30641 net.cpp:129] Top shape: 64 256 14 14 (3211264)
I0718 10:52:53.437713 30641 net.cpp:137] Memory required for data: 4582473984
I0718 10:52:53.437721 30641 layer_factory.hpp:77] Creating layer scale4d_branch2b
I0718 10:52:53.437734 30641 net.cpp:84] Creating Layer scale4d_branch2b
I0718 10:52:53.437738 30641 net.cpp:406] scale4d_branch2b <- res4d_branch2b
I0718 10:52:53.437743 30641 net.cpp:367] scale4d_branch2b -> res4d_branch2b (in-place)
I0718 10:52:53.437798 30641 layer_factory.hpp:77] Creating layer scale4d_branch2b
I0718 10:52:53.437943 30641 net.cpp:122] Setting up scale4d_branch2b
I0718 10:52:53.437985 30641 net.cpp:129] Top shape: 64 256 14 14 (3211264)
I0718 10:52:53.437989 30641 net.cpp:137] Memory required for data: 4595319040
I0718 10:52:53.437995 30641 layer_factory.hpp:77] Creating layer res4d
I0718 10:52:53.438010 30641 net.cpp:84] Creating Layer res4d
I0718 10:52:53.438015 30641 net.cpp:406] res4d <- res4c_res4c_relu_0_split_1
I0718 10:52:53.438020 30641 net.cpp:406] res4d <- res4d_branch2b
I0718 10:52:53.438025 30641 net.cpp:380] res4d -> res4d
I0718 10:52:53.438066 30641 net.cpp:122] Setting up res4d
I0718 10:52:53.438077 30641 net.cpp:129] Top shape: 64 256 14 14 (3211264)
I0718 10:52:53.438081 30641 net.cpp:137] Memory required for data: 4608164096
I0718 10:52:53.438084 30641 layer_factory.hpp:77] Creating layer res4d_relu
I0718 10:52:53.438092 30641 net.cpp:84] Creating Layer res4d_relu
I0718 10:52:53.438104 30641 net.cpp:406] res4d_relu <- res4d
I0718 10:52:53.438110 30641 net.cpp:367] res4d_relu -> res4d (in-place)
I0718 10:52:53.438938 30641 net.cpp:122] Setting up res4d_relu
I0718 10:52:53.438966 30641 net.cpp:129] Top shape: 64 256 14 14 (3211264)
I0718 10:52:53.438971 30641 net.cpp:137] Memory required for data: 4621009152
I0718 10:52:53.438976 30641 layer_factory.hpp:77] Creating layer res4d_res4d_relu_0_split
I0718 10:52:53.438989 30641 net.cpp:84] Creating Layer res4d_res4d_relu_0_split
I0718 10:52:53.438994 30641 net.cpp:406] res4d_res4d_relu_0_split <- res4d
I0718 10:52:53.438999 30641 net.cpp:380] res4d_res4d_relu_0_split -> res4d_res4d_relu_0_split_0
I0718 10:52:53.439007 30641 net.cpp:380] res4d_res4d_relu_0_split -> res4d_res4d_relu_0_split_1
I0718 10:52:53.439085 30641 net.cpp:122] Setting up res4d_res4d_relu_0_split
I0718 10:52:53.439100 30641 net.cpp:129] Top shape: 64 256 14 14 (3211264)
I0718 10:52:53.439105 30641 net.cpp:129] Top shape: 64 256 14 14 (3211264)
I0718 10:52:53.439108 30641 net.cpp:137] Memory required for data: 4646699264
I0718 10:52:53.439112 30641 layer_factory.hpp:77] Creating layer res4e_branch2a
I0718 10:52:53.439131 30641 net.cpp:84] Creating Layer res4e_branch2a
I0718 10:52:53.439136 30641 net.cpp:406] res4e_branch2a <- res4d_res4d_relu_0_split_0
I0718 10:52:53.439143 30641 net.cpp:380] res4e_branch2a -> res4e_branch2a
I0718 10:52:53.457914 30641 net.cpp:122] Setting up res4e_branch2a
I0718 10:52:53.457948 30641 net.cpp:129] Top shape: 64 256 14 14 (3211264)
I0718 10:52:53.457953 30641 net.cpp:137] Memory required for data: 4659544320
I0718 10:52:53.457962 30641 layer_factory.hpp:77] Creating layer bn4e_branch2a
I0718 10:52:53.457970 30641 net.cpp:84] Creating Layer bn4e_branch2a
I0718 10:52:53.457985 30641 net.cpp:406] bn4e_branch2a <- res4e_branch2a
I0718 10:52:53.457995 30641 net.cpp:367] bn4e_branch2a -> res4e_branch2a (in-place)
I0718 10:52:53.458277 30641 net.cpp:122] Setting up bn4e_branch2a
I0718 10:52:53.458293 30641 net.cpp:129] Top shape: 64 256 14 14 (3211264)
I0718 10:52:53.458297 30641 net.cpp:137] Memory required for data: 4672389376
I0718 10:52:53.458307 30641 layer_factory.hpp:77] Creating layer scale4e_branch2a
I0718 10:52:53.458344 30641 net.cpp:84] Creating Layer scale4e_branch2a
I0718 10:52:53.458355 30641 net.cpp:406] scale4e_branch2a <- res4e_branch2a
I0718 10:52:53.458361 30641 net.cpp:367] scale4e_branch2a -> res4e_branch2a (in-place)
I0718 10:52:53.458420 30641 layer_factory.hpp:77] Creating layer scale4e_branch2a
I0718 10:52:53.458565 30641 net.cpp:122] Setting up scale4e_branch2a
I0718 10:52:53.458578 30641 net.cpp:129] Top shape: 64 256 14 14 (3211264)
I0718 10:52:53.458581 30641 net.cpp:137] Memory required for data: 4685234432
I0718 10:52:53.458588 30641 layer_factory.hpp:77] Creating layer res4e_branch2a_relu
I0718 10:52:53.458604 30641 net.cpp:84] Creating Layer res4e_branch2a_relu
I0718 10:52:53.458608 30641 net.cpp:406] res4e_branch2a_relu <- res4e_branch2a
I0718 10:52:53.458613 30641 net.cpp:367] res4e_branch2a_relu -> res4e_branch2a (in-place)
I0718 10:52:53.459115 30641 net.cpp:122] Setting up res4e_branch2a_relu
I0718 10:52:53.459133 30641 net.cpp:129] Top shape: 64 256 14 14 (3211264)
I0718 10:52:53.459167 30641 net.cpp:137] Memory required for data: 4698079488
I0718 10:52:53.459172 30641 layer_factory.hpp:77] Creating layer res4e_branch2b
I0718 10:52:53.459203 30641 net.cpp:84] Creating Layer res4e_branch2b
I0718 10:52:53.459219 30641 net.cpp:406] res4e_branch2b <- res4e_branch2a
I0718 10:52:53.459233 30641 net.cpp:380] res4e_branch2b -> res4e_branch2b
I0718 10:52:53.478049 30641 net.cpp:122] Setting up res4e_branch2b
I0718 10:52:53.478085 30641 net.cpp:129] Top shape: 64 256 14 14 (3211264)
I0718 10:52:53.478091 30641 net.cpp:137] Memory required for data: 4710924544
I0718 10:52:53.478097 30641 layer_factory.hpp:77] Creating layer bn4e_branch2b
I0718 10:52:53.478107 30641 net.cpp:84] Creating Layer bn4e_branch2b
I0718 10:52:53.478119 30641 net.cpp:406] bn4e_branch2b <- res4e_branch2b
I0718 10:52:53.478128 30641 net.cpp:367] bn4e_branch2b -> res4e_branch2b (in-place)
I0718 10:52:53.478411 30641 net.cpp:122] Setting up bn4e_branch2b
I0718 10:52:53.478427 30641 net.cpp:129] Top shape: 64 256 14 14 (3211264)
I0718 10:52:53.478431 30641 net.cpp:137] Memory required for data: 4723769600
I0718 10:52:53.478440 30641 layer_factory.hpp:77] Creating layer scale4e_branch2b
I0718 10:52:53.478446 30641 net.cpp:84] Creating Layer scale4e_branch2b
I0718 10:52:53.478456 30641 net.cpp:406] scale4e_branch2b <- res4e_branch2b
I0718 10:52:53.478464 30641 net.cpp:367] scale4e_branch2b -> res4e_branch2b (in-place)
I0718 10:52:53.478521 30641 layer_factory.hpp:77] Creating layer scale4e_branch2b
I0718 10:52:53.478667 30641 net.cpp:122] Setting up scale4e_branch2b
I0718 10:52:53.478682 30641 net.cpp:129] Top shape: 64 256 14 14 (3211264)
I0718 10:52:53.478685 30641 net.cpp:137] Memory required for data: 4736614656
I0718 10:52:53.478691 30641 layer_factory.hpp:77] Creating layer res4e
I0718 10:52:53.478703 30641 net.cpp:84] Creating Layer res4e
I0718 10:52:53.478708 30641 net.cpp:406] res4e <- res4d_res4d_relu_0_split_1
I0718 10:52:53.478713 30641 net.cpp:406] res4e <- res4e_branch2b
I0718 10:52:53.478718 30641 net.cpp:380] res4e -> res4e
I0718 10:52:53.478760 30641 net.cpp:122] Setting up res4e
I0718 10:52:53.478772 30641 net.cpp:129] Top shape: 64 256 14 14 (3211264)
I0718 10:52:53.478776 30641 net.cpp:137] Memory required for data: 4749459712
I0718 10:52:53.478780 30641 layer_factory.hpp:77] Creating layer res4e_relu
I0718 10:52:53.478788 30641 net.cpp:84] Creating Layer res4e_relu
I0718 10:52:53.478797 30641 net.cpp:406] res4e_relu <- res4e
I0718 10:52:53.478801 30641 net.cpp:367] res4e_relu -> res4e (in-place)
I0718 10:52:53.479355 30641 net.cpp:122] Setting up res4e_relu
I0718 10:52:53.479377 30641 net.cpp:129] Top shape: 64 256 14 14 (3211264)
I0718 10:52:53.479380 30641 net.cpp:137] Memory required for data: 4762304768
I0718 10:52:53.479384 30641 layer_factory.hpp:77] Creating layer res4e_res4e_relu_0_split
I0718 10:52:53.479393 30641 net.cpp:84] Creating Layer res4e_res4e_relu_0_split
I0718 10:52:53.479403 30641 net.cpp:406] res4e_res4e_relu_0_split <- res4e
I0718 10:52:53.479409 30641 net.cpp:380] res4e_res4e_relu_0_split -> res4e_res4e_relu_0_split_0
I0718 10:52:53.479416 30641 net.cpp:380] res4e_res4e_relu_0_split -> res4e_res4e_relu_0_split_1
I0718 10:52:53.479476 30641 net.cpp:122] Setting up res4e_res4e_relu_0_split
I0718 10:52:53.479490 30641 net.cpp:129] Top shape: 64 256 14 14 (3211264)
I0718 10:52:53.479495 30641 net.cpp:129] Top shape: 64 256 14 14 (3211264)
I0718 10:52:53.479496 30641 net.cpp:137] Memory required for data: 4787994880
I0718 10:52:53.479501 30641 layer_factory.hpp:77] Creating layer res4f_branch2a
I0718 10:52:53.479511 30641 net.cpp:84] Creating Layer res4f_branch2a
I0718 10:52:53.479521 30641 net.cpp:406] res4f_branch2a <- res4e_res4e_relu_0_split_0
I0718 10:52:53.479527 30641 net.cpp:380] res4f_branch2a -> res4f_branch2a
I0718 10:52:53.498176 30641 net.cpp:122] Setting up res4f_branch2a
I0718 10:52:53.498225 30641 net.cpp:129] Top shape: 64 256 14 14 (3211264)
I0718 10:52:53.498230 30641 net.cpp:137] Memory required for data: 4800839936
I0718 10:52:53.498237 30641 layer_factory.hpp:77] Creating layer bn4f_branch2a
I0718 10:52:53.498286 30641 net.cpp:84] Creating Layer bn4f_branch2a
I0718 10:52:53.498293 30641 net.cpp:406] bn4f_branch2a <- res4f_branch2a
I0718 10:52:53.498302 30641 net.cpp:367] bn4f_branch2a -> res4f_branch2a (in-place)
I0718 10:52:53.498574 30641 net.cpp:122] Setting up bn4f_branch2a
I0718 10:52:53.498589 30641 net.cpp:129] Top shape: 64 256 14 14 (3211264)
I0718 10:52:53.498592 30641 net.cpp:137] Memory required for data: 4813684992
I0718 10:52:53.498600 30641 layer_factory.hpp:77] Creating layer scale4f_branch2a
I0718 10:52:53.498615 30641 net.cpp:84] Creating Layer scale4f_branch2a
I0718 10:52:53.498620 30641 net.cpp:406] scale4f_branch2a <- res4f_branch2a
I0718 10:52:53.498625 30641 net.cpp:367] scale4f_branch2a -> res4f_branch2a (in-place)
I0718 10:52:53.498683 30641 layer_factory.hpp:77] Creating layer scale4f_branch2a
I0718 10:52:53.498827 30641 net.cpp:122] Setting up scale4f_branch2a
I0718 10:52:53.498844 30641 net.cpp:129] Top shape: 64 256 14 14 (3211264)
I0718 10:52:53.498854 30641 net.cpp:137] Memory required for data: 4826530048
I0718 10:52:53.498862 30641 layer_factory.hpp:77] Creating layer res4f_branch2a_relu
I0718 10:52:53.498870 30641 net.cpp:84] Creating Layer res4f_branch2a_relu
I0718 10:52:53.498879 30641 net.cpp:406] res4f_branch2a_relu <- res4f_branch2a
I0718 10:52:53.498884 30641 net.cpp:367] res4f_branch2a_relu -> res4f_branch2a (in-place)
I0718 10:52:53.499712 30641 net.cpp:122] Setting up res4f_branch2a_relu
I0718 10:52:53.499738 30641 net.cpp:129] Top shape: 64 256 14 14 (3211264)
I0718 10:52:53.499742 30641 net.cpp:137] Memory required for data: 4839375104
I0718 10:52:53.499747 30641 layer_factory.hpp:77] Creating layer res4f_branch2b
I0718 10:52:53.499766 30641 net.cpp:84] Creating Layer res4f_branch2b
I0718 10:52:53.499778 30641 net.cpp:406] res4f_branch2b <- res4f_branch2a
I0718 10:52:53.499784 30641 net.cpp:380] res4f_branch2b -> res4f_branch2b
I0718 10:52:53.518436 30641 net.cpp:122] Setting up res4f_branch2b
I0718 10:52:53.518465 30641 net.cpp:129] Top shape: 64 256 14 14 (3211264)
I0718 10:52:53.518473 30641 net.cpp:137] Memory required for data: 4852220160
I0718 10:52:53.518483 30641 layer_factory.hpp:77] Creating layer bn4f_branch2b
I0718 10:52:53.518496 30641 net.cpp:84] Creating Layer bn4f_branch2b
I0718 10:52:53.518502 30641 net.cpp:406] bn4f_branch2b <- res4f_branch2b
I0718 10:52:53.518515 30641 net.cpp:367] bn4f_branch2b -> res4f_branch2b (in-place)
I0718 10:52:53.518791 30641 net.cpp:122] Setting up bn4f_branch2b
I0718 10:52:53.518807 30641 net.cpp:129] Top shape: 64 256 14 14 (3211264)
I0718 10:52:53.518811 30641 net.cpp:137] Memory required for data: 4865065216
I0718 10:52:53.518820 30641 layer_factory.hpp:77] Creating layer scale4f_branch2b
I0718 10:52:53.518834 30641 net.cpp:84] Creating Layer scale4f_branch2b
I0718 10:52:53.518838 30641 net.cpp:406] scale4f_branch2b <- res4f_branch2b
I0718 10:52:53.518846 30641 net.cpp:367] scale4f_branch2b -> res4f_branch2b (in-place)
I0718 10:52:53.518896 30641 layer_factory.hpp:77] Creating layer scale4f_branch2b
I0718 10:52:53.519042 30641 net.cpp:122] Setting up scale4f_branch2b
I0718 10:52:53.519055 30641 net.cpp:129] Top shape: 64 256 14 14 (3211264)
I0718 10:52:53.519059 30641 net.cpp:137] Memory required for data: 4877910272
I0718 10:52:53.519065 30641 layer_factory.hpp:77] Creating layer res4f
I0718 10:52:53.519078 30641 net.cpp:84] Creating Layer res4f
I0718 10:52:53.519081 30641 net.cpp:406] res4f <- res4e_res4e_relu_0_split_1
I0718 10:52:53.519086 30641 net.cpp:406] res4f <- res4f_branch2b
I0718 10:52:53.519091 30641 net.cpp:380] res4f -> res4f
I0718 10:52:53.519134 30641 net.cpp:122] Setting up res4f
I0718 10:52:53.519150 30641 net.cpp:129] Top shape: 64 256 14 14 (3211264)
I0718 10:52:53.519152 30641 net.cpp:137] Memory required for data: 4890755328
I0718 10:52:53.519156 30641 layer_factory.hpp:77] Creating layer res4f_relu
I0718 10:52:53.519167 30641 net.cpp:84] Creating Layer res4f_relu
I0718 10:52:53.519201 30641 net.cpp:406] res4f_relu <- res4f
I0718 10:52:53.519244 30641 net.cpp:367] res4f_relu -> res4f (in-place)
I0718 10:52:53.519790 30641 net.cpp:122] Setting up res4f_relu
I0718 10:52:53.519814 30641 net.cpp:129] Top shape: 64 256 14 14 (3211264)
I0718 10:52:53.519820 30641 net.cpp:137] Memory required for data: 4903600384
I0718 10:52:53.519826 30641 layer_factory.hpp:77] Creating layer res4f_res4f_relu_0_split
I0718 10:52:53.519840 30641 net.cpp:84] Creating Layer res4f_res4f_relu_0_split
I0718 10:52:53.519855 30641 net.cpp:406] res4f_res4f_relu_0_split <- res4f
I0718 10:52:53.519865 30641 net.cpp:380] res4f_res4f_relu_0_split -> res4f_res4f_relu_0_split_0
I0718 10:52:53.519871 30641 net.cpp:380] res4f_res4f_relu_0_split -> res4f_res4f_relu_0_split_1
I0718 10:52:53.519945 30641 net.cpp:122] Setting up res4f_res4f_relu_0_split
I0718 10:52:53.519958 30641 net.cpp:129] Top shape: 64 256 14 14 (3211264)
I0718 10:52:53.519963 30641 net.cpp:129] Top shape: 64 256 14 14 (3211264)
I0718 10:52:53.519965 30641 net.cpp:137] Memory required for data: 4929290496
I0718 10:52:53.519969 30641 layer_factory.hpp:77] Creating layer res5a_branch1
I0718 10:52:53.519991 30641 net.cpp:84] Creating Layer res5a_branch1
I0718 10:52:53.519997 30641 net.cpp:406] res5a_branch1 <- res4f_res4f_relu_0_split_0
I0718 10:52:53.520005 30641 net.cpp:380] res5a_branch1 -> res5a_branch1
I0718 10:52:53.526854 30641 net.cpp:122] Setting up res5a_branch1
I0718 10:52:53.526885 30641 net.cpp:129] Top shape: 64 512 7 7 (1605632)
I0718 10:52:53.526888 30641 net.cpp:137] Memory required for data: 4935713024
I0718 10:52:53.526895 30641 layer_factory.hpp:77] Creating layer bn5a_branch1
I0718 10:52:53.526902 30641 net.cpp:84] Creating Layer bn5a_branch1
I0718 10:52:53.526916 30641 net.cpp:406] bn5a_branch1 <- res5a_branch1
I0718 10:52:53.526923 30641 net.cpp:367] bn5a_branch1 -> res5a_branch1 (in-place)
I0718 10:52:53.527225 30641 net.cpp:122] Setting up bn5a_branch1
I0718 10:52:53.527241 30641 net.cpp:129] Top shape: 64 512 7 7 (1605632)
I0718 10:52:53.527245 30641 net.cpp:137] Memory required for data: 4942135552
I0718 10:52:53.527253 30641 layer_factory.hpp:77] Creating layer scale5a_branch1
I0718 10:52:53.527261 30641 net.cpp:84] Creating Layer scale5a_branch1
I0718 10:52:53.527271 30641 net.cpp:406] scale5a_branch1 <- res5a_branch1
I0718 10:52:53.527278 30641 net.cpp:367] scale5a_branch1 -> res5a_branch1 (in-place)
I0718 10:52:53.527328 30641 layer_factory.hpp:77] Creating layer scale5a_branch1
I0718 10:52:53.527493 30641 net.cpp:122] Setting up scale5a_branch1
I0718 10:52:53.527508 30641 net.cpp:129] Top shape: 64 512 7 7 (1605632)
I0718 10:52:53.527513 30641 net.cpp:137] Memory required for data: 4948558080
I0718 10:52:53.527519 30641 layer_factory.hpp:77] Creating layer res5a_branch2a
I0718 10:52:53.527535 30641 net.cpp:84] Creating Layer res5a_branch2a
I0718 10:52:53.527540 30641 net.cpp:406] res5a_branch2a <- res4f_res4f_relu_0_split_1
I0718 10:52:53.527552 30641 net.cpp:380] res5a_branch2a -> res5a_branch2a
I0718 10:52:53.561751 30641 net.cpp:122] Setting up res5a_branch2a
I0718 10:52:53.561791 30641 net.cpp:129] Top shape: 64 512 7 7 (1605632)
I0718 10:52:53.561796 30641 net.cpp:137] Memory required for data: 4954980608
I0718 10:52:53.561806 30641 layer_factory.hpp:77] Creating layer bn5a_branch2a
I0718 10:52:53.561818 30641 net.cpp:84] Creating Layer bn5a_branch2a
I0718 10:52:53.561825 30641 net.cpp:406] bn5a_branch2a <- res5a_branch2a
I0718 10:52:53.561841 30641 net.cpp:367] bn5a_branch2a -> res5a_branch2a (in-place)
I0718 10:52:53.562115 30641 net.cpp:122] Setting up bn5a_branch2a
I0718 10:52:53.562129 30641 net.cpp:129] Top shape: 64 512 7 7 (1605632)
I0718 10:52:53.562134 30641 net.cpp:137] Memory required for data: 4961403136
I0718 10:52:53.562141 30641 layer_factory.hpp:77] Creating layer scale5a_branch2a
I0718 10:52:53.562156 30641 net.cpp:84] Creating Layer scale5a_branch2a
I0718 10:52:53.562160 30641 net.cpp:406] scale5a_branch2a <- res5a_branch2a
I0718 10:52:53.562166 30641 net.cpp:367] scale5a_branch2a -> res5a_branch2a (in-place)
I0718 10:52:53.562252 30641 layer_factory.hpp:77] Creating layer scale5a_branch2a
I0718 10:52:53.562450 30641 net.cpp:122] Setting up scale5a_branch2a
I0718 10:52:53.562465 30641 net.cpp:129] Top shape: 64 512 7 7 (1605632)
I0718 10:52:53.562469 30641 net.cpp:137] Memory required for data: 4967825664
I0718 10:52:53.562475 30641 layer_factory.hpp:77] Creating layer res5a_branch2a_relu
I0718 10:52:53.562490 30641 net.cpp:84] Creating Layer res5a_branch2a_relu
I0718 10:52:53.562496 30641 net.cpp:406] res5a_branch2a_relu <- res5a_branch2a
I0718 10:52:53.562501 30641 net.cpp:367] res5a_branch2a_relu -> res5a_branch2a (in-place)
I0718 10:52:53.563031 30641 net.cpp:122] Setting up res5a_branch2a_relu
I0718 10:52:53.563051 30641 net.cpp:129] Top shape: 64 512 7 7 (1605632)
I0718 10:52:53.563055 30641 net.cpp:137] Memory required for data: 4974248192
I0718 10:52:53.563060 30641 layer_factory.hpp:77] Creating layer res5a_branch2b
I0718 10:52:53.563077 30641 net.cpp:84] Creating Layer res5a_branch2b
I0718 10:52:53.563082 30641 net.cpp:406] res5a_branch2b <- res5a_branch2a
I0718 10:52:53.563091 30641 net.cpp:380] res5a_branch2b -> res5a_branch2b
I0718 10:52:53.630940 30641 net.cpp:122] Setting up res5a_branch2b
I0718 10:52:53.630990 30641 net.cpp:129] Top shape: 64 512 7 7 (1605632)
I0718 10:52:53.630997 30641 net.cpp:137] Memory required for data: 4980670720
I0718 10:52:53.631011 30641 layer_factory.hpp:77] Creating layer bn5a_branch2b
I0718 10:52:53.631029 30641 net.cpp:84] Creating Layer bn5a_branch2b
I0718 10:52:53.631037 30641 net.cpp:406] bn5a_branch2b <- res5a_branch2b
I0718 10:52:53.631045 30641 net.cpp:367] bn5a_branch2b -> res5a_branch2b (in-place)
I0718 10:52:53.631371 30641 net.cpp:122] Setting up bn5a_branch2b
I0718 10:52:53.631387 30641 net.cpp:129] Top shape: 64 512 7 7 (1605632)
I0718 10:52:53.631392 30641 net.cpp:137] Memory required for data: 4987093248
I0718 10:52:53.631403 30641 layer_factory.hpp:77] Creating layer scale5a_branch2b
I0718 10:52:53.631419 30641 net.cpp:84] Creating Layer scale5a_branch2b
I0718 10:52:53.631431 30641 net.cpp:406] scale5a_branch2b <- res5a_branch2b
I0718 10:52:53.631436 30641 net.cpp:367] scale5a_branch2b -> res5a_branch2b (in-place)
I0718 10:52:53.631497 30641 layer_factory.hpp:77] Creating layer scale5a_branch2b
I0718 10:52:53.631660 30641 net.cpp:122] Setting up scale5a_branch2b
I0718 10:52:53.631675 30641 net.cpp:129] Top shape: 64 512 7 7 (1605632)
I0718 10:52:53.631678 30641 net.cpp:137] Memory required for data: 4993515776
I0718 10:52:53.631685 30641 layer_factory.hpp:77] Creating layer res5a
I0718 10:52:53.631698 30641 net.cpp:84] Creating Layer res5a
I0718 10:52:53.631703 30641 net.cpp:406] res5a <- res5a_branch1
I0718 10:52:53.631707 30641 net.cpp:406] res5a <- res5a_branch2b
I0718 10:52:53.631716 30641 net.cpp:380] res5a -> res5a
I0718 10:52:53.631762 30641 net.cpp:122] Setting up res5a
I0718 10:52:53.631775 30641 net.cpp:129] Top shape: 64 512 7 7 (1605632)
I0718 10:52:53.631779 30641 net.cpp:137] Memory required for data: 4999938304
I0718 10:52:53.631783 30641 layer_factory.hpp:77] Creating layer res5a_relu
I0718 10:52:53.631789 30641 net.cpp:84] Creating Layer res5a_relu
I0718 10:52:53.631803 30641 net.cpp:406] res5a_relu <- res5a
I0718 10:52:53.631810 30641 net.cpp:367] res5a_relu -> res5a (in-place)
I0718 10:52:53.632442 30641 net.cpp:122] Setting up res5a_relu
I0718 10:52:53.632467 30641 net.cpp:129] Top shape: 64 512 7 7 (1605632)
I0718 10:52:53.632473 30641 net.cpp:137] Memory required for data: 5006360832
I0718 10:52:53.632480 30641 layer_factory.hpp:77] Creating layer res5a_res5a_relu_0_split
I0718 10:52:53.632490 30641 net.cpp:84] Creating Layer res5a_res5a_relu_0_split
I0718 10:52:53.632498 30641 net.cpp:406] res5a_res5a_relu_0_split <- res5a
I0718 10:52:53.632521 30641 net.cpp:380] res5a_res5a_relu_0_split -> res5a_res5a_relu_0_split_0
I0718 10:52:53.632541 30641 net.cpp:380] res5a_res5a_relu_0_split -> res5a_res5a_relu_0_split_1
I0718 10:52:53.632606 30641 net.cpp:122] Setting up res5a_res5a_relu_0_split
I0718 10:52:53.632621 30641 net.cpp:129] Top shape: 64 512 7 7 (1605632)
I0718 10:52:53.632625 30641 net.cpp:129] Top shape: 64 512 7 7 (1605632)
I0718 10:52:53.632664 30641 net.cpp:137] Memory required for data: 5019205888
I0718 10:52:53.632669 30641 layer_factory.hpp:77] Creating layer res5b_branch2a
I0718 10:52:53.632685 30641 net.cpp:84] Creating Layer res5b_branch2a
I0718 10:52:53.632694 30641 net.cpp:406] res5b_branch2a <- res5a_res5a_relu_0_split_0
I0718 10:52:53.632700 30641 net.cpp:380] res5b_branch2a -> res5b_branch2a
I0718 10:52:53.699220 30641 net.cpp:122] Setting up res5b_branch2a
I0718 10:52:53.699267 30641 net.cpp:129] Top shape: 64 512 7 7 (1605632)
I0718 10:52:53.699273 30641 net.cpp:137] Memory required for data: 5025628416
I0718 10:52:53.699283 30641 layer_factory.hpp:77] Creating layer bn5b_branch2a
I0718 10:52:53.699301 30641 net.cpp:84] Creating Layer bn5b_branch2a
I0718 10:52:53.699308 30641 net.cpp:406] bn5b_branch2a <- res5b_branch2a
I0718 10:52:53.699316 30641 net.cpp:367] bn5b_branch2a -> res5b_branch2a (in-place)
I0718 10:52:53.699627 30641 net.cpp:122] Setting up bn5b_branch2a
I0718 10:52:53.699651 30641 net.cpp:129] Top shape: 64 512 7 7 (1605632)
I0718 10:52:53.699666 30641 net.cpp:137] Memory required for data: 5032050944
I0718 10:52:53.699681 30641 layer_factory.hpp:77] Creating layer scale5b_branch2a
I0718 10:52:53.699702 30641 net.cpp:84] Creating Layer scale5b_branch2a
I0718 10:52:53.699713 30641 net.cpp:406] scale5b_branch2a <- res5b_branch2a
I0718 10:52:53.699718 30641 net.cpp:367] scale5b_branch2a -> res5b_branch2a (in-place)
I0718 10:52:53.699776 30641 layer_factory.hpp:77] Creating layer scale5b_branch2a
I0718 10:52:53.699945 30641 net.cpp:122] Setting up scale5b_branch2a
I0718 10:52:53.699960 30641 net.cpp:129] Top shape: 64 512 7 7 (1605632)
I0718 10:52:53.699965 30641 net.cpp:137] Memory required for data: 5038473472
I0718 10:52:53.699971 30641 layer_factory.hpp:77] Creating layer res5b_branch2a_relu
I0718 10:52:53.699985 30641 net.cpp:84] Creating Layer res5b_branch2a_relu
I0718 10:52:53.699988 30641 net.cpp:406] res5b_branch2a_relu <- res5b_branch2a
I0718 10:52:53.699995 30641 net.cpp:367] res5b_branch2a_relu -> res5b_branch2a (in-place)
I0718 10:52:53.701130 30641 net.cpp:122] Setting up res5b_branch2a_relu
I0718 10:52:53.701156 30641 net.cpp:129] Top shape: 64 512 7 7 (1605632)
I0718 10:52:53.701161 30641 net.cpp:137] Memory required for data: 5044896000
I0718 10:52:53.701166 30641 layer_factory.hpp:77] Creating layer res5b_branch2b
I0718 10:52:53.701200 30641 net.cpp:84] Creating Layer res5b_branch2b
I0718 10:52:53.701220 30641 net.cpp:406] res5b_branch2b <- res5b_branch2a
I0718 10:52:53.701236 30641 net.cpp:380] res5b_branch2b -> res5b_branch2b
I0718 10:52:53.769826 30641 net.cpp:122] Setting up res5b_branch2b
I0718 10:52:53.769871 30641 net.cpp:129] Top shape: 64 512 7 7 (1605632)
I0718 10:52:53.769876 30641 net.cpp:137] Memory required for data: 5051318528
I0718 10:52:53.769887 30641 layer_factory.hpp:77] Creating layer bn5b_branch2b
I0718 10:52:53.769901 30641 net.cpp:84] Creating Layer bn5b_branch2b
I0718 10:52:53.769908 30641 net.cpp:406] bn5b_branch2b <- res5b_branch2b
I0718 10:52:53.769919 30641 net.cpp:367] bn5b_branch2b -> res5b_branch2b (in-place)
I0718 10:52:53.770241 30641 net.cpp:122] Setting up bn5b_branch2b
I0718 10:52:53.770258 30641 net.cpp:129] Top shape: 64 512 7 7 (1605632)
I0718 10:52:53.770262 30641 net.cpp:137] Memory required for data: 5057741056
I0718 10:52:53.770272 30641 layer_factory.hpp:77] Creating layer scale5b_branch2b
I0718 10:52:53.770280 30641 net.cpp:84] Creating Layer scale5b_branch2b
I0718 10:52:53.770290 30641 net.cpp:406] scale5b_branch2b <- res5b_branch2b
I0718 10:52:53.770296 30641 net.cpp:367] scale5b_branch2b -> res5b_branch2b (in-place)
I0718 10:52:53.770354 30641 layer_factory.hpp:77] Creating layer scale5b_branch2b
I0718 10:52:53.770527 30641 net.cpp:122] Setting up scale5b_branch2b
I0718 10:52:53.770545 30641 net.cpp:129] Top shape: 64 512 7 7 (1605632)
I0718 10:52:53.770550 30641 net.cpp:137] Memory required for data: 5064163584
I0718 10:52:53.770555 30641 layer_factory.hpp:77] Creating layer res5b
I0718 10:52:53.770565 30641 net.cpp:84] Creating Layer res5b
I0718 10:52:53.770611 30641 net.cpp:406] res5b <- res5a_res5a_relu_0_split_1
I0718 10:52:53.770617 30641 net.cpp:406] res5b <- res5b_branch2b
I0718 10:52:53.770623 30641 net.cpp:380] res5b -> res5b
I0718 10:52:53.770678 30641 net.cpp:122] Setting up res5b
I0718 10:52:53.770696 30641 net.cpp:129] Top shape: 64 512 7 7 (1605632)
I0718 10:52:53.770709 30641 net.cpp:137] Memory required for data: 5070586112
I0718 10:52:53.770714 30641 layer_factory.hpp:77] Creating layer res5b_relu
I0718 10:52:53.770725 30641 net.cpp:84] Creating Layer res5b_relu
I0718 10:52:53.770735 30641 net.cpp:406] res5b_relu <- res5b
I0718 10:52:53.770742 30641 net.cpp:367] res5b_relu -> res5b (in-place)
I0718 10:52:53.771344 30641 net.cpp:122] Setting up res5b_relu
I0718 10:52:53.771368 30641 net.cpp:129] Top shape: 64 512 7 7 (1605632)
I0718 10:52:53.771374 30641 net.cpp:137] Memory required for data: 5077008640
I0718 10:52:53.771380 30641 layer_factory.hpp:77] Creating layer res5b_res5b_relu_0_split
I0718 10:52:53.771394 30641 net.cpp:84] Creating Layer res5b_res5b_relu_0_split
I0718 10:52:53.771401 30641 net.cpp:406] res5b_res5b_relu_0_split <- res5b
I0718 10:52:53.771419 30641 net.cpp:380] res5b_res5b_relu_0_split -> res5b_res5b_relu_0_split_0
I0718 10:52:53.771430 30641 net.cpp:380] res5b_res5b_relu_0_split -> res5b_res5b_relu_0_split_1
I0718 10:52:53.771505 30641 net.cpp:122] Setting up res5b_res5b_relu_0_split
I0718 10:52:53.771519 30641 net.cpp:129] Top shape: 64 512 7 7 (1605632)
I0718 10:52:53.771523 30641 net.cpp:129] Top shape: 64 512 7 7 (1605632)
I0718 10:52:53.771526 30641 net.cpp:137] Memory required for data: 5089853696
I0718 10:52:53.771530 30641 layer_factory.hpp:77] Creating layer res5c_branch2a
I0718 10:52:53.771543 30641 net.cpp:84] Creating Layer res5c_branch2a
I0718 10:52:53.771564 30641 net.cpp:406] res5c_branch2a <- res5b_res5b_relu_0_split_0
I0718 10:52:53.771570 30641 net.cpp:380] res5c_branch2a -> res5c_branch2a
I0718 10:52:53.838392 30641 net.cpp:122] Setting up res5c_branch2a
I0718 10:52:53.838438 30641 net.cpp:129] Top shape: 64 512 7 7 (1605632)
I0718 10:52:53.838444 30641 net.cpp:137] Memory required for data: 5096276224
I0718 10:52:53.838454 30641 layer_factory.hpp:77] Creating layer bn5c_branch2a
I0718 10:52:53.838471 30641 net.cpp:84] Creating Layer bn5c_branch2a
I0718 10:52:53.838479 30641 net.cpp:406] bn5c_branch2a <- res5c_branch2a
I0718 10:52:53.838487 30641 net.cpp:367] bn5c_branch2a -> res5c_branch2a (in-place)
I0718 10:52:53.838783 30641 net.cpp:122] Setting up bn5c_branch2a
I0718 10:52:53.838798 30641 net.cpp:129] Top shape: 64 512 7 7 (1605632)
I0718 10:52:53.838801 30641 net.cpp:137] Memory required for data: 5102698752
I0718 10:52:53.838809 30641 layer_factory.hpp:77] Creating layer scale5c_branch2a
I0718 10:52:53.838819 30641 net.cpp:84] Creating Layer scale5c_branch2a
I0718 10:52:53.838829 30641 net.cpp:406] scale5c_branch2a <- res5c_branch2a
I0718 10:52:53.838836 30641 net.cpp:367] scale5c_branch2a -> res5c_branch2a (in-place)
I0718 10:52:53.838888 30641 layer_factory.hpp:77] Creating layer scale5c_branch2a
I0718 10:52:53.839051 30641 net.cpp:122] Setting up scale5c_branch2a
I0718 10:52:53.839064 30641 net.cpp:129] Top shape: 64 512 7 7 (1605632)
I0718 10:52:53.839067 30641 net.cpp:137] Memory required for data: 5109121280
I0718 10:52:53.839074 30641 layer_factory.hpp:77] Creating layer res5c_branch2a_relu
I0718 10:52:53.839082 30641 net.cpp:84] Creating Layer res5c_branch2a_relu
I0718 10:52:53.839092 30641 net.cpp:406] res5c_branch2a_relu <- res5c_branch2a
I0718 10:52:53.839097 30641 net.cpp:367] res5c_branch2a_relu -> res5c_branch2a (in-place)
I0718 10:52:53.839643 30641 net.cpp:122] Setting up res5c_branch2a_relu
I0718 10:52:53.839664 30641 net.cpp:129] Top shape: 64 512 7 7 (1605632)
I0718 10:52:53.839668 30641 net.cpp:137] Memory required for data: 5115543808
I0718 10:52:53.839673 30641 layer_factory.hpp:77] Creating layer res5c_branch2b
I0718 10:52:53.839686 30641 net.cpp:84] Creating Layer res5c_branch2b
I0718 10:52:53.839691 30641 net.cpp:406] res5c_branch2b <- res5c_branch2a
I0718 10:52:53.839735 30641 net.cpp:380] res5c_branch2b -> res5c_branch2b
I0718 10:52:53.906395 30641 net.cpp:122] Setting up res5c_branch2b
I0718 10:52:53.906440 30641 net.cpp:129] Top shape: 64 512 7 7 (1605632)
I0718 10:52:53.906446 30641 net.cpp:137] Memory required for data: 5121966336
I0718 10:52:53.906456 30641 layer_factory.hpp:77] Creating layer bn5c_branch2b
I0718 10:52:53.906471 30641 net.cpp:84] Creating Layer bn5c_branch2b
I0718 10:52:53.906477 30641 net.cpp:406] bn5c_branch2b <- res5c_branch2b
I0718 10:52:53.906488 30641 net.cpp:367] bn5c_branch2b -> res5c_branch2b (in-place)
I0718 10:52:53.906790 30641 net.cpp:122] Setting up bn5c_branch2b
I0718 10:52:53.906805 30641 net.cpp:129] Top shape: 64 512 7 7 (1605632)
I0718 10:52:53.906808 30641 net.cpp:137] Memory required for data: 5128388864
I0718 10:52:53.906816 30641 layer_factory.hpp:77] Creating layer scale5c_branch2b
I0718 10:52:53.906831 30641 net.cpp:84] Creating Layer scale5c_branch2b
I0718 10:52:53.906836 30641 net.cpp:406] scale5c_branch2b <- res5c_branch2b
I0718 10:52:53.906843 30641 net.cpp:367] scale5c_branch2b -> res5c_branch2b (in-place)
I0718 10:52:53.906903 30641 layer_factory.hpp:77] Creating layer scale5c_branch2b
I0718 10:52:53.907070 30641 net.cpp:122] Setting up scale5c_branch2b
I0718 10:52:53.907088 30641 net.cpp:129] Top shape: 64 512 7 7 (1605632)
I0718 10:52:53.907090 30641 net.cpp:137] Memory required for data: 5134811392
I0718 10:52:53.907097 30641 layer_factory.hpp:77] Creating layer res5c
I0718 10:52:53.907111 30641 net.cpp:84] Creating Layer res5c
I0718 10:52:53.907116 30641 net.cpp:406] res5c <- res5b_res5b_relu_0_split_1
I0718 10:52:53.907121 30641 net.cpp:406] res5c <- res5c_branch2b
I0718 10:52:53.907126 30641 net.cpp:380] res5c -> res5c
I0718 10:52:53.907172 30641 net.cpp:122] Setting up res5c
I0718 10:52:53.907197 30641 net.cpp:129] Top shape: 64 512 7 7 (1605632)
I0718 10:52:53.907202 30641 net.cpp:137] Memory required for data: 5141233920
I0718 10:52:53.907205 30641 layer_factory.hpp:77] Creating layer res5c_relu
I0718 10:52:53.907215 30641 net.cpp:84] Creating Layer res5c_relu
I0718 10:52:53.907224 30641 net.cpp:406] res5c_relu <- res5c
I0718 10:52:53.907229 30641 net.cpp:367] res5c_relu -> res5c (in-place)
I0718 10:52:53.908092 30641 net.cpp:122] Setting up res5c_relu
I0718 10:52:53.908118 30641 net.cpp:129] Top shape: 64 512 7 7 (1605632)
I0718 10:52:53.908121 30641 net.cpp:137] Memory required for data: 5147656448
I0718 10:52:53.908126 30641 layer_factory.hpp:77] Creating layer pool5
I0718 10:52:53.908151 30641 net.cpp:84] Creating Layer pool5
I0718 10:52:53.908157 30641 net.cpp:406] pool5 <- res5c
I0718 10:52:53.908164 30641 net.cpp:380] pool5 -> pool5
I0718 10:52:53.908794 30641 net.cpp:122] Setting up pool5
I0718 10:52:53.908819 30641 net.cpp:129] Top shape: 64 512 5 5 (819200)
I0718 10:52:53.908824 30641 net.cpp:137] Memory required for data: 5150933248
I0718 10:52:53.908828 30641 layer_factory.hpp:77] Creating layer fc6
I0718 10:52:53.908849 30641 net.cpp:84] Creating Layer fc6
I0718 10:52:53.908852 30641 net.cpp:406] fc6 <- pool5
I0718 10:52:53.908864 30641 net.cpp:380] fc6 -> fc6
I0718 10:52:54.001905 30641 net.cpp:122] Setting up fc6
I0718 10:52:54.001953 30641 net.cpp:129] Top shape: 64 1024 (65536)
I0718 10:52:54.001958 30641 net.cpp:137] Memory required for data: 5151195392
I0718 10:52:54.001971 30641 layer_factory.hpp:77] Creating layer relu6
I0718 10:52:54.001987 30641 net.cpp:84] Creating Layer relu6
I0718 10:52:54.001993 30641 net.cpp:406] relu6 <- fc6
I0718 10:52:54.002002 30641 net.cpp:367] relu6 -> fc6 (in-place)
I0718 10:52:54.002693 30641 net.cpp:122] Setting up relu6
I0718 10:52:54.002715 30641 net.cpp:129] Top shape: 64 1024 (65536)
I0718 10:52:54.002719 30641 net.cpp:137] Memory required for data: 5151457536
I0718 10:52:54.002723 30641 layer_factory.hpp:77] Creating layer fc17128
I0718 10:52:54.002734 30641 net.cpp:84] Creating Layer fc17128
I0718 10:52:54.002745 30641 net.cpp:406] fc17128 <- fc6
I0718 10:52:54.002751 30641 net.cpp:380] fc17128 -> fc17128
I0718 10:52:54.006147 30641 net.cpp:122] Setting up fc17128
I0718 10:52:54.006206 30641 net.cpp:129] Top shape: 64 128 (8192)
I0718 10:52:54.006211 30641 net.cpp:137] Memory required for data: 5151490304
I0718 10:52:54.006218 30641 layer_factory.hpp:77] Creating layer l2
I0718 10:52:54.006233 30641 net.cpp:84] Creating Layer l2
I0718 10:52:54.006244 30641 net.cpp:406] l2 <- fc17128
I0718 10:52:54.006250 30641 net.cpp:380] l2 -> l2
I0718 10:52:54.006323 30641 net.cpp:122] Setting up l2
I0718 10:52:54.006337 30641 net.cpp:129] Top shape: 64 128 (8192)
I0718 10:52:54.006340 30641 net.cpp:137] Memory required for data: 5151523072
I0718 10:52:54.006345 30641 layer_factory.hpp:77] Creating layer tripletloss
I0718 10:52:54.006358 30641 net.cpp:84] Creating Layer tripletloss
I0718 10:52:54.006369 30641 net.cpp:406] tripletloss <- l2
I0718 10:52:54.006374 30641 net.cpp:406] tripletloss <- label
I0718 10:52:54.006383 30641 net.cpp:380] tripletloss -> tripletloss
…
I0718 10:52:54.010843 30641 net.cpp:51] Initializing net from parameters: 
name: "ResNet-34"
state {
  phase: TEST
}
layer {
  name: "val-data"
  type: "ImageData"
  top: "data"
  top: "label"
  include {
    phase: TEST
  }
  transform_param {
    mirror: false
    crop_size: 112
    mean_file: "/alidata/home/yuanjun/code/DIGITS/digits/jobs/20180717-134051-8e1e/mean.binaryproto"
  }
  image_data_param {
    source: "/alidata/home/yuanjun/code/Aladdin/val.txt"
    batch_size: 32
    new_height: 112
    new_width: 112
    root_folder: "/alidata/home/yuanjun/data/ms1m/"
  }
}
layer {
  name: "conv1"
  type: "Convolution"
  bottom: "data"
  top: "conv1"
  convolution_param {
    num_output: 64
    bias_term: false
    pad: 1
    kernel_size: 3
    stride: 1
    weight_filler {
      type: "msra"
    }
  }
}
layer {
  name: "bn_conv1"
  type: "BatchNorm"
  bottom: "conv1"
  top: "conv1"
  batch_norm_param {
    use_global_stats: false
  }
}
layer {
  name: "scale_conv1"
  type: "Scale"
  bottom: "conv1"
  top: "conv1"
  scale_param {
    bias_term: true
  }
}
layer {
  name: "conv1_relu"
  type: "ReLU"
  bottom: "conv1"
  top: "conv1"
}
layer {
  name: "pool1"
  type: "Pooling"
  bottom: "conv1"
  top: "pool1"
  pooling_param {
    pool: MAX
    kernel_size: 3
    stride: 2
  }
}
layer {
  name: "res2a_branch1"
  type: "Convolution"
  bottom: "pool1"
  top: "res2a_branch1"
  convolution_param {
    num_output: 64
    bias_term: false
    pad: 0
    kernel_size: 1
    stride: 1
    weight_filler {
      type: "msra"
    }
  }
}
layer {
  name: "bn2a_branch1"
  type: "BatchNorm"
  bottom: "res2a_branch1"
  top: "res2a_branch1"
  batch_norm_param {
    use_global_stats: false
  }
}
layer {
  name: "scale2a_branch1"
  type: "Scale"
  bottom: "res2a_branch1"
  top: "res2a_branch1"
  scale_param {
    bias_term: true
  }
}
layer {
  name: "res2a_branch2a"
  type: "Convolution"
  bottom: "pool1"
  top: "res2a_branch2a"
  convolution_param {
    num_output: 64
    bias_term: false
    pad: 1
    kernel_size: 3
    stride: 1
    weight_filler {
      type: "msra"
    }
  }
}
layer {
  name: "bn2a_branch2a"
  type: "BatchNorm"
  bottom: "res2a_branch2a"
  top: "res2a_branch2a"
  batch_norm_param {
    use_global_stats: false
  }
}
layer {
  name: "scale2a_branch2a"
  type: "Scale"
  bottom: "res2a_branch2a"
  top: "res2a_branch2a"
  scale_param {
    bias_term: true
  }
}
layer {
  name: "res2a_branch2a_relu"
  type: "ReLU"
  bottom: "res2a_branch2a"
  top: "res2a_branch2a"
}
layer {
  name: "res2a_branch2b"
  type: "Convolution"
  bottom: "res2a_branch2a"
  top: "res2a_branch2b"
  convolution_param {
    num_output: 64
    bias_term: false
    pad: 1
    kernel_size: 3
    stride: 1
    weight_filler {
      type: "msra"
    }
  }
}
layer {
  name: "bn2a_branch2b"
  type: "BatchNorm"
  bottom: "res2a_branch2b"
  top: "res2a_branch2b"
  batch_norm_param {
    use_global_stats: false
  }
}
layer {
  name: "scale2a_branch2b"
  type: "Scale"
  bottom: "res2a_branch2b"
  top: "res2a_branch2b"
  scale_param {
    bias_term: true
  }
}
layer {
  name: "res2a"
  type: "Eltwise"
  bottom: "res2a_branch1"
  bottom: "res2a_branch2b"
  top: "res2a"
  eltwise_param {
    operation: SUM
  }
}
layer {
  name: "res2a_relu"
  type: "ReLU"
  bottom: "res2a"
  top: "res2a"
}
layer {
  name: "res2b_branch2a"
  type: "Convolution"
  bottom: "res2a"
  top: "res2b_branch2a"
  convolution_param {
    num_output: 64
    bias_term: false
    pad: 1
    kernel_size: 3
    stride: 1
    weight_filler {
      type: "msra"
    }
  }
}
layer {
  name: "bn2b_branch2a"
  type: "BatchNorm"
  bottom: "res2b_branch2a"
  top: "res2b_branch2a"
  batch_norm_param {
    use_global_stats: false
  }
}
layer {
  name: "scale2b_branch2a"
  type: "Scale"
  bottom: "res2b_branch2a"
  top: "res2b_branch2a"
  scale_param {
    bias_term: true
  }
}
layer {
  name: "res2b_branch2a_relu"
  type: "ReLU"
  bottom: "res2b_branch2a"
  top: "res2b_branch2a"
}
layer {
  name: "res2b_branch2b"
  type: "Convolution"
  bottom: "res2b_branch2a"
  top: "res2b_branch2b"
  convolution_param {
    num_output: 64
    bias_term: false
    pad: 1
    kernel_size: 3
    stride: 1
    weight_filler {
      type: "msra"
    }
  }
}
layer {
  name: "bn2b_branch2b"
  type: "BatchNorm"
  bottom: "res2b_branch2b"
  top: "res2b_branch2b"
  batch_norm_param {
    use_global_stats: false
  }
}
layer {
  name: "scale2b_branch2b"
  type: "Scale"
  bottom: "res2b_branch2b"
  top: "res2b_branch2b"
  scale_param {
    bias_term: true
  }
}
layer {
  name: "res2b"
  type: "Eltwise"
  bottom: "res2a"
  bottom: "res2b_branch2b"
  top: "res2b"
  eltwise_param {
    operation: SUM
  }
}
layer {
  name: "res2b_relu"
  type: "ReLU"
  bottom: "res2b"
  top: "res2b"
}
layer {
  name: "res2c_branch2a"
  type: "Convolution"
  bottom: "res2b"
  top: "res2c_branch2a"
  convolution_param {
    num_output: 64
    bias_term: false
    pad: 1
    kernel_size: 3
    stride: 1
    weight_filler {
      type: "msra"
    }
  }
}
layer {
  name: "bn2c_branch2a"
  type: "BatchNorm"
  bottom: "res2c_branch2a"
  top: "res2c_branch2a"
  batch_norm_param {
    use_global_stats: false
  }
}
layer {
  name: "scale2c_branch2a"
  type: "Scale"
  bottom: "res2c_branch2a"
  top: "res2c_branch2a"
  scale_param {
    bias_term: true
  }
}
layer {
  name: "res2c_branch2a_relu"
  type: "ReLU"
  bottom: "res2c_branch2a"
  top: "res2c_branch2a"
}
layer {
  name: "res2c_branch2b"
  type: "Convolution"
  bottom: "res2c_branch2a"
  top: "res2c_branch2b"
  convolution_param {
    num_output: 64
    bias_term: false
    pad: 1
    kernel_size: 3
    stride: 1
    weight_filler {
      type: "msra"
    }
  }
}
layer {
  name: "bn2c_branch2b"
  type: "BatchNorm"
  bottom: "res2c_branch2b"
  top: "res2c_branch2b"
  batch_norm_param {
    use_global_stats: false
  }
}
layer {
  name: "scale2c_branch2b"
  type: "Scale"
  bottom: "res2c_branch2b"
  top: "res2c_branch2b"
  scale_param {
    bias_term: true
  }
}
layer {
  name: "res2c"
  type: "Eltwise"
  bottom: "res2b"
  bottom: "res2c_branch2b"
  top: "res2c"
  eltwise_param {
    operation: SUM
  }
}
layer {
  name: "res2c_relu"
  type: "ReLU"
  bottom: "res2c"
  top: "res2c"
}
layer {
  name: "res3a_branch1"
  type: "Convolution"
  bottom: "res2c"
  top: "res3a_branch1"
  convolution_param {
    num_output: 128
    bias_term: false
    pad: 0
    kernel_size: 1
    stride: 2
    weight_filler {
      type: "msra"
    }
  }
}
layer {
  name: "bn3a_branch1"
  type: "BatchNorm"
  bottom: "res3a_branch1"
  top: "res3a_branch1"
  batch_norm_param {
    use_global_stats: false
  }
}
layer {
  name: "scale3a_branch1"
  type: "Scale"
  bottom: "res3a_branch1"
  top: "res3a_branch1"
  scale_param {
    bias_term: true
  }
}
layer {
  name: "res3a_branch2a"
  type: "Convolution"
  bottom: "res2c"
  top: "res3a_branch2a"
  convolution_param {
    num_output: 128
    bias_term: false
    pad: 1
    kernel_size: 3
    stride: 2
    weight_filler {
      type: "msra"
    }
  }
}
layer {
  name: "bn3a_branch2a"
  type: "BatchNorm"
  bottom: "res3a_branch2a"
  top: "res3a_branch2a"
  batch_norm_param {
    use_global_stats: false
  }
}
layer {
  name: "scale3a_branch2a"
  type: "Scale"
  bottom: "res3a_branch2a"
  top: "res3a_branch2a"
  scale_param {
    bias_term: true
  }
}
layer {
  name: "res3a_branch2a_relu"
  type: "ReLU"
  bottom: "res3a_branch2a"
  top: "res3a_branch2a"
}
layer {
  name: "res3a_branch2b"
  type: "Convolution"
  bottom: "res3a_branch2a"
  top: "res3a_branch2b"
  convolution_param {
    num_output: 128
    bias_term: false
    pad: 1
    kernel_size: 3
    stride: 1
    weight_filler {
      type: "msra"
    }
  }
}
layer {
  name: "bn3a_branch2b"
  type: "BatchNorm"
  bottom: "res3a_branch2b"
  top: "res3a_branch2b"
  batch_norm_param {
    use_global_stats: false
  }
}
layer {
  name: "scale3a_branch2b"
  type: "Scale"
  bottom: "res3a_branch2b"
  top: "res3a_branch2b"
  scale_param {
    bias_term: true
  }
}
layer {
  name: "res3a"
  type: "Eltwise"
  bottom: "res3a_branch1"
  bottom: "res3a_branch2b"
  top: "res3a"
  eltwise_param {
    operation: SUM
  }
}
layer {
  name: "res3a_relu"
  type: "ReLU"
  bottom: "res3a"
  top: "res3a"
}
layer {
  name: "res3b_branch2a"
  type: "Convolution"
  bottom: "res3a"
  top: "res3b_branch2a"
  convolution_param {
    num_output: 128
    bias_term: false
    pad: 1
    kernel_size: 3
    stride: 1
    weight_filler {
      type: "msra"
    }
  }
}
layer {
  name: "bn3b_branch2a"
  type: "BatchNorm"
  bottom: "res3b_branch2a"
  top: "res3b_branch2a"
  batch_norm_param {
    use_global_stats: false
  }
}
layer {
  name: "scale3b_branch2a"
  type: "Scale"
  bottom: "res3b_branch2a"
  top: "res3b_branch2a"
  scale_param {
    bias_term: true
  }
}
layer {
  name: "res3b_branch2a_relu"
  type: "ReLU"
  bottom: "res3b_branch2a"
  top: "res3b_branch2a"
}
layer {
  name: "res3b_branch2b"
  type: "Convolution"
  bottom: "res3b_branch2a"
  top: "res3b_branch2b"
  convolution_param {
    num_output: 128
    bias_term: false
    pad: 1
    kernel_size: 3
    stride: 1
    weight_filler {
      type: "msra"
    }
  }
}
layer {
  name: "bn3b_branch2b"
  type: "BatchNorm"
  bottom: "res3b_branch2b"
  top: "res3b_branch2b"
  batch_norm_param {
    use_global_stats: false
  }
}
layer {
  name: "scale3b_branch2b"
  type: "Scale"
  bottom: "res3b_branch2b"
  top: "res3b_branch2b"
  scale_param {
    bias_term: true
  }
}
layer {
  name: "res3b"
  type: "Eltwise"
  bottom: "res3a"
  bottom: "res3b_branch2b"
  top: "res3b"
  eltwise_param {
    operation: SUM
  }
}
layer {
  name: "res3b_relu"
  type: "ReLU"
  bottom: "res3b"
  top: "res3b"
}
layer {
  name: "res3c_branch2a"
  type: "Convolution"
  bottom: "res3b"
  top: "res3c_branch2a"
  convolution_param {
    num_output: 128
    bias_term: false
    pad: 1
    kernel_size: 3
    stride: 1
    weight_filler {
      type: "msra"
    }
  }
}
layer {
  name: "bn3c_branch2a"
  type: "BatchNorm"
  bottom: "res3c_branch2a"
  top: "res3c_branch2a"
  batch_norm_param {
    use_global_stats: false
  }
}
layer {
  name: "scale3c_branch2a"
  type: "Scale"
  bottom: "res3c_branch2a"
  top: "res3c_branch2a"
  scale_param {
    bias_term: true
  }
}
layer {
  name: "res3c_branch2a_relu"
  type: "ReLU"
  bottom: "res3c_branch2a"
  top: "res3c_branch2a"
}
layer {
  name: "res3c_branch2b"
  type: "Convolution"
  bottom: "res3c_branch2a"
  top: "res3c_branch2b"
  convolution_param {
    num_output: 128
    bias_term: false
    pad: 1
    kernel_size: 3
    stride: 1
    weight_filler {
      type: "msra"
    }
  }
}
layer {
  name: "bn3c_branch2b"
  type: "BatchNorm"
  bottom: "res3c_branch2b"
  top: "res3c_branch2b"
  batch_norm_param {
    use_global_stats: false
  }
}
layer {
  name: "scale3c_branch2b"
  type: "Scale"
  bottom: "res3c_branch2b"
  top: "res3c_branch2b"
  scale_param {
    bias_term: true
  }
}
layer {
  name: "res3c"
  type: "Eltwise"
  bottom: "res3b"
  bottom: "res3c_branch2b"
  top: "res3c"
  eltwise_param {
    operation: SUM
  }
}
layer {
  name: "res3c_relu"
  type: "ReLU"
  bottom: "res3c"
  top: "res3c"
}
layer {
  name: "res3d_branch2a"
  type: "Convolution"
  bottom: "res3c"
  top: "res3d_branch2a"
  convolution_param {
    num_output: 128
    bias_term: false
    pad: 1
    kernel_size: 3
    stride: 1
    weight_filler {
      type: "msra"
    }
  }
}
layer {
  name: "bn3d_branch2a"
  type: "BatchNorm"
  bottom: "res3d_branch2a"
  top: "res3d_branch2a"
  batch_norm_param {
    use_global_stats: false
  }
}
layer {
  name: "scale3d_branch2a"
  type: "Scale"
  bottom: "res3d_branch2a"
  top: "res3d_branch2a"
  scale_param {
    bias_term: true
  }
}
layer {
  name: "res3d_branch2a_relu"
  type: "ReLU"
  bottom: "res3d_branch2a"
  top: "res3d_branch2a"
}
layer {
  name: "res3d_branch2b"
  type: "Convolution"
  bottom: "res3d_branch2a"
  top: "res3d_branch2b"
  convolution_param {
    num_output: 128
    bias_term: false
    pad: 1
    kernel_size: 3
    stride: 1
    weight_filler {
      type: "msra"
    }
  }
}
layer {
  name: "bn3d_branch2b"
  type: "BatchNorm"
  bottom: "res3d_branch2b"
  top: "res3d_branch2b"
  batch_norm_param {
    use_global_stats: false
  }
}
layer {
  name: "scale3d_branch2b"
  type: "Scale"
  bottom: "res3d_branch2b"
  top: "res3d_branch2b"
  scale_param {
    bias_term: true
  }
}
layer {
  name: "res3d"
  type: "Eltwise"
  bottom: "res3c"
  bottom: "res3d_branch2b"
  top: "res3d"
  eltwise_param {
    operation: SUM
  }
}
layer {
  name: "res3d_relu"
  type: "ReLU"
  bottom: "res3d"
  top: "res3d"
}
layer {
  name: "res4a_branch1"
  type: "Convolution"
  bottom: "res3d"
  top: "res4a_branch1"
  convolution_param {
    num_output: 256
    bias_term: false
    pad: 0
    kernel_size: 1
    stride: 2
    weight_filler {
      type: "msra"
    }
  }
}
layer {
  name: "bn4a_branch1"
  type: "BatchNorm"
  bottom: "res4a_branch1"
  top: "res4a_branch1"
  batch_norm_param {
    use_global_stats: false
  }
}
layer {
  name: "scale4a_branch1"
  type: "Scale"
  bottom: "res4a_branch1"
  top: "res4a_branch1"
  scale_param {
    bias_term: true
  }
}
layer {
  name: "res4a_branch2a"
  type: "Convolution"
  bottom: "res3d"
  top: "res4a_branch2a"
  convolution_param {
    num_output: 256
    bias_term: false
    pad: 1
    kernel_size: 3
    stride: 2
    weight_filler {
      type: "msra"
    }
  }
}
layer {
  name: "bn4a_branch2a"
  type: "BatchNorm"
  bottom: "res4a_branch2a"
  top: "res4a_branch2a"
  batch_norm_param {
    use_global_stats: false
  }
}
layer {
  name: "scale4a_branch2a"
  type: "Scale"
  bottom: "res4a_branch2a"
  top: "res4a_branch2a"
  scale_param {
    bias_term: true
  }
}
layer {
  name: "res4a_branch2a_relu"
  type: "ReLU"
  bottom: "res4a_branch2a"
  top: "res4a_branch2a"
}
layer {
  name: "res4a_branch2b"
  type: "Convolution"
  bottom: "res4a_branch2a"
  top: "res4a_branch2b"
  convolution_param {
    num_output: 256
    bias_term: false
    pad: 1
    kernel_size: 3
    stride: 1
    weight_filler {
      type: "msra"
    }
  }
}
layer {
  name: "bn4a_branch2b"
  type: "BatchNorm"
  bottom: "res4a_branch2b"
  top: "res4a_branch2b"
  batch_norm_param {
    use_global_stats: false
  }
}
layer {
  name: "scale4a_branch2b"
  type: "Scale"
  bottom: "res4a_branch2b"
  top: "res4a_branch2b"
  scale_param {
    bias_term: true
  }
}
layer {
  name: "res4a"
  type: "Eltwise"
  bottom: "res4a_branch1"
  bottom: "res4a_branch2b"
  top: "res4a"
  eltwise_param {
    operation: SUM
  }
}
layer {
  name: "res4a_relu"
  type: "ReLU"
  bottom: "res4a"
  top: "res4a"
}
layer {
  name: "res4b_branch2a"
  type: "Convolution"
  bottom: "res4a"
  top: "res4b_branch2a"
  convolution_param {
    num_output: 256
    bias_term: false
    pad: 1
    kernel_size: 3
    stride: 1
    weight_filler {
      type: "msra"
    }
  }
}
layer {
  name: "bn4b_branch2a"
  type: "BatchNorm"
  bottom: "res4b_branch2a"
  top: "res4b_branch2a"
  batch_norm_param {
    use_global_stats: false
  }
}
layer {
  name: "scale4b_branch2a"
  type: "Scale"
  bottom: "res4b_branch2a"
  top: "res4b_branch2a"
  scale_param {
    bias_term: true
  }
}
layer {
  name: "res4b_branch2a_relu"
  type: "ReLU"
  bottom: "res4b_branch2a"
  top: "res4b_branch2a"
}
layer {
  name: "res4b_branch2b"
  type: "Convolution"
  bottom: "res4b_branch2a"
  top: "res4b_branch2b"
  convolution_param {
    num_output: 256
    bias_term: false
    pad: 1
    kernel_size: 3
    stride: 1
    weight_filler {
      type: "msra"
    }
  }
}
layer {
  name: "bn4b_branch2b"
  type: "BatchNorm"
  bottom: "res4b_branch2b"
  top: "res4b_branch2b"
  batch_norm_param {
    use_global_stats: false
  }
}
layer {
  name: "scale4b_branch2b"
  type: "Scale"
  bottom: "res4b_branch2b"
  top: "res4b_branch2b"
  scale_param {
    bias_term: true
  }
}
layer {
  name: "res4b"
  type: "Eltwise"
  bottom: "res4a"
  bottom: "res4b_branch2b"
  top: "res4b"
  eltwise_param {
    operation: SUM
  }
}
layer {
  name: "res4b_relu"
  type: "ReLU"
  bottom: "res4b"
  top: "res4b"
}
layer {
  name: "res4c_branch2a"
  type: "Convolution"
  bottom: "res4b"
  top: "res4c_branch2a"
  convolution_param {
    num_output: 256
    bias_term: false
    pad: 1
    kernel_size: 3
    stride: 1
    weight_filler {
      type: "msra"
    }
  }
}
layer {
  name: "bn4c_branch2a"
  type: "BatchNorm"
  bottom: "res4c_branch2a"
  top: "res4c_branch2a"
  batch_norm_param {
    use_global_stats: false
  }
}
layer {
  name: "scale4c_branch2a"
  type: "Scale"
  bottom: "res4c_branch2a"
  top: "res4c_branch2a"
  scale_param {
    bias_term: true
  }
}
layer {
  name: "res4c_branch2a_relu"
  type: "ReLU"
  bottom: "res4c_branch2a"
  top: "res4c_branch2a"
}
layer {
  name: "res4c_branch2b"
  type: "Convolution"
  bottom: "res4c_branch2a"
  top: "res4c_branch2b"
  convolution_param {
    num_output: 256
    bias_term: false
    pad: 1
    kernel_size: 3
    stride: 1
    weight_filler {
      type: "msra"
    }
  }
}
layer {
  name: "bn4c_branch2b"
  type: "BatchNorm"
  bottom: "res4c_branch2b"
  top: "res4c_branch2b"
  batch_norm_param {
    use_global_stats: false
  }
}
layer {
  name: "scale4c_branch2b"
  type: "Scale"
  bottom: "res4c_branch2b"
  top: "res4c_branch2b"
  scale_param {
    bias_term: true
  }
}
layer {
  name: "res4c"
  type: "Eltwise"
  bottom: "res4b"
  bottom: "res4c_branch2b"
  top: "res4c"
  eltwise_param {
    operation: SUM
  }
}
layer {
  name: "res4c_relu"
  type: "ReLU"
  bottom: "res4c"
  top: "res4c"
}
layer {
  name: "res4d_branch2a"
  type: "Convolution"
  bottom: "res4c"
  top: "res4d_branch2a"
  convolution_param {
    num_output: 256
    bias_term: false
    pad: 1
    kernel_size: 3
    stride: 1
    weight_filler {
      type: "msra"
    }
  }
}
layer {
  name: "bn4d_branch2a"
  type: "BatchNorm"
  bottom: "res4d_branch2a"
  top: "res4d_branch2a"
  batch_norm_param {
    use_global_stats: false
  }
}
layer {
  name: "scale4d_branch2a"
  type: "Scale"
  bottom: "res4d_branch2a"
  top: "res4d_branch2a"
  scale_param {
    bias_term: true
  }
}
layer {
  name: "res4d_branch2a_relu"
  type: "ReLU"
  bottom: "res4d_branch2a"
  top: "res4d_branch2a"
}
layer {
  name: "res4d_branch2b"
  type: "Convolution"
  bottom: "res4d_branch2a"
  top: "res4d_branch2b"
  convolution_param {
    num_output: 256
    bias_term: false
    pad: 1
    kernel_size: 3
    stride: 1
    weight_filler {
      type: "msra"
    }
  }
}
layer {
  name: "bn4d_branch2b"
  type: "BatchNorm"
  bottom: "res4d_branch2b"
  top: "res4d_branch2b"
  batch_norm_param {
    use_global_stats: false
  }
}
layer {
  name: "scale4d_branch2b"
  type: "Scale"
  bottom: "res4d_branch2b"
  top: "res4d_branch2b"
  scale_param {
    bias_term: true
  }
}
layer {
  name: "res4d"
  type: "Eltwise"
  bottom: "res4c"
  bottom: "res4d_branch2b"
  top: "res4d"
  eltwise_param {
    operation: SUM
  }
}
layer {
  name: "res4d_relu"
  type: "ReLU"
  bottom: "res4d"
  top: "res4d"
}
layer {
  name: "res4e_branch2a"
  type: "Convolution"
  bottom: "res4d"
  top: "res4e_branch2a"
  convolution_param {
    num_output: 256
    bias_term: false
    pad: 1
    kernel_size: 3
    stride: 1
    weight_filler {
      type: "msra"
    }
  }
}
…
I0718 10:52:54.367476 30641 net.cpp:137] Memory required for data: 2092138624
I0718 10:52:54.367480 30641 layer_factory.hpp:77] Creating layer res4a_relu
I0718 10:52:54.367486 30641 net.cpp:84] Creating Layer res4a_relu
I0718 10:52:54.367489 30641 net.cpp:406] res4a_relu <- res4a
I0718 10:52:54.367494 30641 net.cpp:367] res4a_relu -> res4a (in-place)
I0718 10:52:54.368028 30641 net.cpp:122] Setting up res4a_relu
I0718 10:52:54.368047 30641 net.cpp:129] Top shape: 32 256 14 14 (1605632)
I0718 10:52:54.368050 30641 net.cpp:137] Memory required for data: 2098561152
I0718 10:52:54.368054 30641 layer_factory.hpp:77] Creating layer res4a_res4a_relu_0_split
I0718 10:52:54.368089 30641 net.cpp:84] Creating Layer res4a_res4a_relu_0_split
I0718 10:52:54.368094 30641 net.cpp:406] res4a_res4a_relu_0_split <- res4a
I0718 10:52:54.368105 30641 net.cpp:380] res4a_res4a_relu_0_split -> res4a_res4a_relu_0_split_0
I0718 10:52:54.368115 30641 net.cpp:380] res4a_res4a_relu_0_split -> res4a_res4a_relu_0_split_1
I0718 10:52:54.368207 30641 net.cpp:122] Setting up res4a_res4a_relu_0_split
I0718 10:52:54.368228 30641 net.cpp:129] Top shape: 32 256 14 14 (1605632)
I0718 10:52:54.368234 30641 net.cpp:129] Top shape: 32 256 14 14 (1605632)
I0718 10:52:54.368237 30641 net.cpp:137] Memory required for data: 2111406208
I0718 10:52:54.368242 30641 layer_factory.hpp:77] Creating layer res4b_branch2a
I0718 10:52:54.368254 30641 net.cpp:84] Creating Layer res4b_branch2a
I0718 10:52:54.368264 30641 net.cpp:406] res4b_branch2a <- res4a_res4a_relu_0_split_0
I0718 10:52:54.368273 30641 net.cpp:380] res4b_branch2a -> res4b_branch2a
I0718 10:52:54.386891 30641 net.cpp:122] Setting up res4b_branch2a
I0718 10:52:54.386919 30641 net.cpp:129] Top shape: 32 256 14 14 (1605632)
I0718 10:52:54.386924 30641 net.cpp:137] Memory required for data: 2117828736
I0718 10:52:54.386931 30641 layer_factory.hpp:77] Creating layer bn4b_branch2a
I0718 10:52:54.386943 30641 net.cpp:84] Creating Layer bn4b_branch2a
I0718 10:52:54.386955 30641 net.cpp:406] bn4b_branch2a <- res4b_branch2a
I0718 10:52:54.386962 30641 net.cpp:367] bn4b_branch2a -> res4b_branch2a (in-place)
I0718 10:52:54.387323 30641 net.cpp:122] Setting up bn4b_branch2a
I0718 10:52:54.387341 30641 net.cpp:129] Top shape: 32 256 14 14 (1605632)
I0718 10:52:54.387346 30641 net.cpp:137] Memory required for data: 2124251264
I0718 10:52:54.387354 30641 layer_factory.hpp:77] Creating layer scale4b_branch2a
I0718 10:52:54.387367 30641 net.cpp:84] Creating Layer scale4b_branch2a
I0718 10:52:54.387372 30641 net.cpp:406] scale4b_branch2a <- res4b_branch2a
I0718 10:52:54.387377 30641 net.cpp:367] scale4b_branch2a -> res4b_branch2a (in-place)
I0718 10:52:54.387445 30641 layer_factory.hpp:77] Creating layer scale4b_branch2a
I0718 10:52:54.387620 30641 net.cpp:122] Setting up scale4b_branch2a
I0718 10:52:54.387634 30641 net.cpp:129] Top shape: 32 256 14 14 (1605632)
I0718 10:52:54.387636 30641 net.cpp:137] Memory required for data: 2130673792
I0718 10:52:54.387643 30641 layer_factory.hpp:77] Creating layer res4b_branch2a_relu
I0718 10:52:54.387650 30641 net.cpp:84] Creating Layer res4b_branch2a_relu
I0718 10:52:54.387660 30641 net.cpp:406] res4b_branch2a_relu <- res4b_branch2a
I0718 10:52:54.387666 30641 net.cpp:367] res4b_branch2a_relu -> res4b_branch2a (in-place)
I0718 10:52:54.388581 30641 net.cpp:122] Setting up res4b_branch2a_relu
I0718 10:52:54.388608 30641 net.cpp:129] Top shape: 32 256 14 14 (1605632)
I0718 10:52:54.388612 30641 net.cpp:137] Memory required for data: 2137096320
I0718 10:52:54.388617 30641 layer_factory.hpp:77] Creating layer res4b_branch2b
I0718 10:52:54.388634 30641 net.cpp:84] Creating Layer res4b_branch2b
I0718 10:52:54.388640 30641 net.cpp:406] res4b_branch2b <- res4b_branch2a
I0718 10:52:54.388649 30641 net.cpp:380] res4b_branch2b -> res4b_branch2b
I0718 10:52:54.407024 30641 net.cpp:122] Setting up res4b_branch2b
I0718 10:52:54.407052 30641 net.cpp:129] Top shape: 32 256 14 14 (1605632)
I0718 10:52:54.407058 30641 net.cpp:137] Memory required for data: 2143518848
I0718 10:52:54.407065 30641 layer_factory.hpp:77] Creating layer bn4b_branch2b
I0718 10:52:54.407076 30641 net.cpp:84] Creating Layer bn4b_branch2b
I0718 10:52:54.407089 30641 net.cpp:406] bn4b_branch2b <- res4b_branch2b
I0718 10:52:54.407099 30641 net.cpp:367] bn4b_branch2b -> res4b_branch2b (in-place)
I0718 10:52:54.407430 30641 net.cpp:122] Setting up bn4b_branch2b
I0718 10:52:54.407447 30641 net.cpp:129] Top shape: 32 256 14 14 (1605632)
I0718 10:52:54.407451 30641 net.cpp:137] Memory required for data: 2149941376
I0718 10:52:54.407488 30641 layer_factory.hpp:77] Creating layer scale4b_branch2b
I0718 10:52:54.407503 30641 net.cpp:84] Creating Layer scale4b_branch2b
I0718 10:52:54.407546 30641 net.cpp:406] scale4b_branch2b <- res4b_branch2b
I0718 10:52:54.407553 30641 net.cpp:367] scale4b_branch2b -> res4b_branch2b (in-place)
I0718 10:52:54.407622 30641 layer_factory.hpp:77] Creating layer scale4b_branch2b
I0718 10:52:54.407824 30641 net.cpp:122] Setting up scale4b_branch2b
I0718 10:52:54.407840 30641 net.cpp:129] Top shape: 32 256 14 14 (1605632)
I0718 10:52:54.407842 30641 net.cpp:137] Memory required for data: 2156363904
I0718 10:52:54.407850 30641 layer_factory.hpp:77] Creating layer res4b
I0718 10:52:54.407861 30641 net.cpp:84] Creating Layer res4b
I0718 10:52:54.407866 30641 net.cpp:406] res4b <- res4a_res4a_relu_0_split_1
I0718 10:52:54.407871 30641 net.cpp:406] res4b <- res4b_branch2b
I0718 10:52:54.407879 30641 net.cpp:380] res4b -> res4b
I0718 10:52:54.407918 30641 net.cpp:122] Setting up res4b
I0718 10:52:54.407933 30641 net.cpp:129] Top shape: 32 256 14 14 (1605632)
I0718 10:52:54.407938 30641 net.cpp:137] Memory required for data: 2162786432
I0718 10:52:54.407940 30641 layer_factory.hpp:77] Creating layer res4b_relu
I0718 10:52:54.407946 30641 net.cpp:84] Creating Layer res4b_relu
I0718 10:52:54.407950 30641 net.cpp:406] res4b_relu <- res4b
I0718 10:52:54.407955 30641 net.cpp:367] res4b_relu -> res4b (in-place)
I0718 10:52:54.408519 30641 net.cpp:122] Setting up res4b_relu
I0718 10:52:54.408538 30641 net.cpp:129] Top shape: 32 256 14 14 (1605632)
I0718 10:52:54.408542 30641 net.cpp:137] Memory required for data: 2169208960
I0718 10:52:54.408546 30641 layer_factory.hpp:77] Creating layer res4b_res4b_relu_0_split
I0718 10:52:54.408556 30641 net.cpp:84] Creating Layer res4b_res4b_relu_0_split
I0718 10:52:54.408560 30641 net.cpp:406] res4b_res4b_relu_0_split <- res4b
I0718 10:52:54.408566 30641 net.cpp:380] res4b_res4b_relu_0_split -> res4b_res4b_relu_0_split_0
I0718 10:52:54.408579 30641 net.cpp:380] res4b_res4b_relu_0_split -> res4b_res4b_relu_0_split_1
I0718 10:52:54.408650 30641 net.cpp:122] Setting up res4b_res4b_relu_0_split
I0718 10:52:54.408664 30641 net.cpp:129] Top shape: 32 256 14 14 (1605632)
I0718 10:52:54.408668 30641 net.cpp:129] Top shape: 32 256 14 14 (1605632)
I0718 10:52:54.408671 30641 net.cpp:137] Memory required for data: 2182054016
I0718 10:52:54.408675 30641 layer_factory.hpp:77] Creating layer res4c_branch2a
I0718 10:52:54.408686 30641 net.cpp:84] Creating Layer res4c_branch2a
I0718 10:52:54.408697 30641 net.cpp:406] res4c_branch2a <- res4b_res4b_relu_0_split_0
I0718 10:52:54.408705 30641 net.cpp:380] res4c_branch2a -> res4c_branch2a
I0718 10:52:54.427119 30641 net.cpp:122] Setting up res4c_branch2a
I0718 10:52:54.427155 30641 net.cpp:129] Top shape: 32 256 14 14 (1605632)
I0718 10:52:54.427160 30641 net.cpp:137] Memory required for data: 2188476544
I0718 10:52:54.427170 30641 layer_factory.hpp:77] Creating layer bn4c_branch2a
I0718 10:52:54.427204 30641 net.cpp:84] Creating Layer bn4c_branch2a
I0718 10:52:54.427211 30641 net.cpp:406] bn4c_branch2a <- res4c_branch2a
I0718 10:52:54.427228 30641 net.cpp:367] bn4c_branch2a -> res4c_branch2a (in-place)
I0718 10:52:54.427552 30641 net.cpp:122] Setting up bn4c_branch2a
I0718 10:52:54.427567 30641 net.cpp:129] Top shape: 32 256 14 14 (1605632)
I0718 10:52:54.427572 30641 net.cpp:137] Memory required for data: 2194899072
I0718 10:52:54.427579 30641 layer_factory.hpp:77] Creating layer scale4c_branch2a
I0718 10:52:54.427595 30641 net.cpp:84] Creating Layer scale4c_branch2a
I0718 10:52:54.427599 30641 net.cpp:406] scale4c_branch2a <- res4c_branch2a
I0718 10:52:54.427604 30641 net.cpp:367] scale4c_branch2a -> res4c_branch2a (in-place)
I0718 10:52:54.427681 30641 layer_factory.hpp:77] Creating layer scale4c_branch2a
I0718 10:52:54.427882 30641 net.cpp:122] Setting up scale4c_branch2a
I0718 10:52:54.427898 30641 net.cpp:129] Top shape: 32 256 14 14 (1605632)
I0718 10:52:54.427901 30641 net.cpp:137] Memory required for data: 2201321600
I0718 10:52:54.427908 30641 layer_factory.hpp:77] Creating layer res4c_branch2a_relu
I0718 10:52:54.427917 30641 net.cpp:84] Creating Layer res4c_branch2a_relu
I0718 10:52:54.427951 30641 net.cpp:406] res4c_branch2a_relu <- res4c_branch2a
I0718 10:52:54.427958 30641 net.cpp:367] res4c_branch2a_relu -> res4c_branch2a (in-place)
I0718 10:52:54.428560 30641 net.cpp:122] Setting up res4c_branch2a_relu
I0718 10:52:54.428580 30641 net.cpp:129] Top shape: 32 256 14 14 (1605632)
I0718 10:52:54.428586 30641 net.cpp:137] Memory required for data: 2207744128
I0718 10:52:54.428589 30641 layer_factory.hpp:77] Creating layer res4c_branch2b
I0718 10:52:54.428602 30641 net.cpp:84] Creating Layer res4c_branch2b
I0718 10:52:54.428616 30641 net.cpp:406] res4c_branch2b <- res4c_branch2a
I0718 10:52:54.428633 30641 net.cpp:380] res4c_branch2b -> res4c_branch2b
I0718 10:52:54.446992 30641 net.cpp:122] Setting up res4c_branch2b
I0718 10:52:54.447024 30641 net.cpp:129] Top shape: 32 256 14 14 (1605632)
I0718 10:52:54.447029 30641 net.cpp:137] Memory required for data: 2214166656
I0718 10:52:54.447036 30641 layer_factory.hpp:77] Creating layer bn4c_branch2b
I0718 10:52:54.447048 30641 net.cpp:84] Creating Layer bn4c_branch2b
I0718 10:52:54.447062 30641 net.cpp:406] bn4c_branch2b <- res4c_branch2b
I0718 10:52:54.447069 30641 net.cpp:367] bn4c_branch2b -> res4c_branch2b (in-place)
I0718 10:52:54.447414 30641 net.cpp:122] Setting up bn4c_branch2b
I0718 10:52:54.447432 30641 net.cpp:129] Top shape: 32 256 14 14 (1605632)
I0718 10:52:54.447437 30641 net.cpp:137] Memory required for data: 2220589184
I0718 10:52:54.447445 30641 layer_factory.hpp:77] Creating layer scale4c_branch2b
I0718 10:52:54.447453 30641 net.cpp:84] Creating Layer scale4c_branch2b
I0718 10:52:54.447463 30641 net.cpp:406] scale4c_branch2b <- res4c_branch2b
I0718 10:52:54.447468 30641 net.cpp:367] scale4c_branch2b -> res4c_branch2b (in-place)
I0718 10:52:54.447540 30641 layer_factory.hpp:77] Creating layer scale4c_branch2b
I0718 10:52:54.447737 30641 net.cpp:122] Setting up scale4c_branch2b
I0718 10:52:54.447752 30641 net.cpp:129] Top shape: 32 256 14 14 (1605632)
I0718 10:52:54.447755 30641 net.cpp:137] Memory required for data: 2227011712
I0718 10:52:54.447762 30641 layer_factory.hpp:77] Creating layer res4c
I0718 10:52:54.447775 30641 net.cpp:84] Creating Layer res4c
I0718 10:52:54.447780 30641 net.cpp:406] res4c <- res4b_res4b_relu_0_split_1
I0718 10:52:54.447785 30641 net.cpp:406] res4c <- res4c_branch2b
I0718 10:52:54.447793 30641 net.cpp:380] res4c -> res4c
I0718 10:52:54.447840 30641 net.cpp:122] Setting up res4c
I0718 10:52:54.447852 30641 net.cpp:129] Top shape: 32 256 14 14 (1605632)
I0718 10:52:54.447855 30641 net.cpp:137] Memory required for data: 2233434240
I0718 10:52:54.447859 30641 layer_factory.hpp:77] Creating layer res4c_relu
I0718 10:52:54.447872 30641 net.cpp:84] Creating Layer res4c_relu
I0718 10:52:54.447882 30641 net.cpp:406] res4c_relu <- res4c
I0718 10:52:54.447887 30641 net.cpp:367] res4c_relu -> res4c (in-place)
I0718 10:52:54.448796 30641 net.cpp:122] Setting up res4c_relu
I0718 10:52:54.448820 30641 net.cpp:129] Top shape: 32 256 14 14 (1605632)
I0718 10:52:54.448824 30641 net.cpp:137] Memory required for data: 2239856768
I0718 10:52:54.448829 30641 layer_factory.hpp:77] Creating layer res4c_res4c_relu_0_split
I0718 10:52:54.448839 30641 net.cpp:84] Creating Layer res4c_res4c_relu_0_split
I0718 10:52:54.448851 30641 net.cpp:406] res4c_res4c_relu_0_split <- res4c
I0718 10:52:54.448858 30641 net.cpp:380] res4c_res4c_relu_0_split -> res4c_res4c_relu_0_split_0
I0718 10:52:54.448864 30641 net.cpp:380] res4c_res4c_relu_0_split -> res4c_res4c_relu_0_split_1
I0718 10:52:54.448945 30641 net.cpp:122] Setting up res4c_res4c_relu_0_split
I0718 10:52:54.448958 30641 net.cpp:129] Top shape: 32 256 14 14 (1605632)
I0718 10:52:54.448962 30641 net.cpp:129] Top shape: 32 256 14 14 (1605632)
I0718 10:52:54.448966 30641 net.cpp:137] Memory required for data: 2252701824
I0718 10:52:54.448968 30641 layer_factory.hpp:77] Creating layer res4d_branch2a
I0718 10:52:54.448981 30641 net.cpp:84] Creating Layer res4d_branch2a
I0718 10:52:54.448984 30641 net.cpp:406] res4d_branch2a <- res4c_res4c_relu_0_split_0
I0718 10:52:54.449021 30641 net.cpp:380] res4d_branch2a -> res4d_branch2a
I0718 10:52:54.468611 30641 net.cpp:122] Setting up res4d_branch2a
I0718 10:52:54.468642 30641 net.cpp:129] Top shape: 32 256 14 14 (1605632)
I0718 10:52:54.468647 30641 net.cpp:137] Memory required for data: 2259124352
I0718 10:52:54.468655 30641 layer_factory.hpp:77] Creating layer bn4d_branch2a
I0718 10:52:54.468667 30641 net.cpp:84] Creating Layer bn4d_branch2a
I0718 10:52:54.468680 30641 net.cpp:406] bn4d_branch2a <- res4d_branch2a
I0718 10:52:54.468688 30641 net.cpp:367] bn4d_branch2a -> res4d_branch2a (in-place)
I0718 10:52:54.469051 30641 net.cpp:122] Setting up bn4d_branch2a
I0718 10:52:54.469069 30641 net.cpp:129] Top shape: 32 256 14 14 (1605632)
I0718 10:52:54.469074 30641 net.cpp:137] Memory required for data: 2265546880
I0718 10:52:54.469084 30641 layer_factory.hpp:77] Creating layer scale4d_branch2a
I0718 10:52:54.469097 30641 net.cpp:84] Creating Layer scale4d_branch2a
I0718 10:52:54.469101 30641 net.cpp:406] scale4d_branch2a <- res4d_branch2a
I0718 10:52:54.469106 30641 net.cpp:367] scale4d_branch2a -> res4d_branch2a (in-place)
I0718 10:52:54.469197 30641 layer_factory.hpp:77] Creating layer scale4d_branch2a
I0718 10:52:54.469382 30641 net.cpp:122] Setting up scale4d_branch2a
I0718 10:52:54.469395 30641 net.cpp:129] Top shape: 32 256 14 14 (1605632)
I0718 10:52:54.469405 30641 net.cpp:137] Memory required for data: 2271969408
I0718 10:52:54.469411 30641 layer_factory.hpp:77] Creating layer res4d_branch2a_relu
I0718 10:52:54.469420 30641 net.cpp:84] Creating Layer res4d_branch2a_relu
I0718 10:52:54.469431 30641 net.cpp:406] res4d_branch2a_relu <- res4d_branch2a
I0718 10:52:54.469436 30641 net.cpp:367] res4d_branch2a_relu -> res4d_branch2a (in-place)
I0718 10:52:54.469974 30641 net.cpp:122] Setting up res4d_branch2a_relu
I0718 10:52:54.469993 30641 net.cpp:129] Top shape: 32 256 14 14 (1605632)
I0718 10:52:54.469997 30641 net.cpp:137] Memory required for data: 2278391936
I0718 10:52:54.470001 30641 layer_factory.hpp:77] Creating layer res4d_branch2b
I0718 10:52:54.470017 30641 net.cpp:84] Creating Layer res4d_branch2b
I0718 10:52:54.470029 30641 net.cpp:406] res4d_branch2b <- res4d_branch2a
I0718 10:52:54.470036 30641 net.cpp:380] res4d_branch2b -> res4d_branch2b
I0718 10:52:54.489204 30641 net.cpp:122] Setting up res4d_branch2b
I0718 10:52:54.489240 30641 net.cpp:129] Top shape: 32 256 14 14 (1605632)
I0718 10:52:54.489245 30641 net.cpp:137] Memory required for data: 2284814464
I0718 10:52:54.489254 30641 layer_factory.hpp:77] Creating layer bn4d_branch2b
I0718 10:52:54.489269 30641 net.cpp:84] Creating Layer bn4d_branch2b
I0718 10:52:54.489282 30641 net.cpp:406] bn4d_branch2b <- res4d_branch2b
I0718 10:52:54.489290 30641 net.cpp:367] bn4d_branch2b -> res4d_branch2b (in-place)
I0718 10:52:54.489634 30641 net.cpp:122] Setting up bn4d_branch2b
I0718 10:52:54.489650 30641 net.cpp:129] Top shape: 32 256 14 14 (1605632)
I0718 10:52:54.489652 30641 net.cpp:137] Memory required for data: 2291236992
I0718 10:52:54.489661 30641 layer_factory.hpp:77] Creating layer scale4d_branch2b
I0718 10:52:54.489675 30641 net.cpp:84] Creating Layer scale4d_branch2b
I0718 10:52:54.489681 30641 net.cpp:406] scale4d_branch2b <- res4d_branch2b
I0718 10:52:54.489684 30641 net.cpp:367] scale4d_branch2b -> res4d_branch2b (in-place)
I0718 10:52:54.489760 30641 layer_factory.hpp:77] Creating layer scale4d_branch2b
I0718 10:52:54.489943 30641 net.cpp:122] Setting up scale4d_branch2b
I0718 10:52:54.489956 30641 net.cpp:129] Top shape: 32 256 14 14 (1605632)
I0718 10:52:54.489960 30641 net.cpp:137] Memory required for data: 2297659520
I0718 10:52:54.489967 30641 layer_factory.hpp:77] Creating layer res4d
I0718 10:52:54.489974 30641 net.cpp:84] Creating Layer res4d
I0718 10:52:54.489984 30641 net.cpp:406] res4d <- res4c_res4c_relu_0_split_1
I0718 10:52:54.489989 30641 net.cpp:406] res4d <- res4d_branch2b
I0718 10:52:54.489997 30641 net.cpp:380] res4d -> res4d
I0718 10:52:54.490044 30641 net.cpp:122] Setting up res4d
I0718 10:52:54.490056 30641 net.cpp:129] Top shape: 32 256 14 14 (1605632)
I0718 10:52:54.490097 30641 net.cpp:137] Memory required for data: 2304082048
I0718 10:52:54.490100 30641 layer_factory.hpp:77] Creating layer res4d_relu
I0718 10:52:54.490110 30641 net.cpp:84] Creating Layer res4d_relu
I0718 10:52:54.490114 30641 net.cpp:406] res4d_relu <- res4d
I0718 10:52:54.490125 30641 net.cpp:367] res4d_relu -> res4d (in-place)
I0718 10:52:54.490696 30641 net.cpp:122] Setting up res4d_relu
I0718 10:52:54.490716 30641 net.cpp:129] Top shape: 32 256 14 14 (1605632)
I0718 10:52:54.490720 30641 net.cpp:137] Memory required for data: 2310504576
I0718 10:52:54.490725 30641 layer_factory.hpp:77] Creating layer res4d_res4d_relu_0_split
I0718 10:52:54.490734 30641 net.cpp:84] Creating Layer res4d_res4d_relu_0_split
I0718 10:52:54.490746 30641 net.cpp:406] res4d_res4d_relu_0_split <- res4d
I0718 10:52:54.490751 30641 net.cpp:380] res4d_res4d_relu_0_split -> res4d_res4d_relu_0_split_0
I0718 10:52:54.490761 30641 net.cpp:380] res4d_res4d_relu_0_split -> res4d_res4d_relu_0_split_1
I0718 10:52:54.490829 30641 net.cpp:122] Setting up res4d_res4d_relu_0_split
I0718 10:52:54.490842 30641 net.cpp:129] Top shape: 32 256 14 14 (1605632)
I0718 10:52:54.490846 30641 net.cpp:129] Top shape: 32 256 14 14 (1605632)
I0718 10:52:54.490849 30641 net.cpp:137] Memory required for data: 2323349632
I0718 10:52:54.490852 30641 layer_factory.hpp:77] Creating layer res4e_branch2a
I0718 10:52:54.490865 30641 net.cpp:84] Creating Layer res4e_branch2a
I0718 10:52:54.490875 30641 net.cpp:406] res4e_branch2a <- res4d_res4d_relu_0_split_0
I0718 10:52:54.490885 30641 net.cpp:380] res4e_branch2a -> res4e_branch2a
I0718 10:52:54.510676 30641 net.cpp:122] Setting up res4e_branch2a
I0718 10:52:54.510712 30641 net.cpp:129] Top shape: 32 256 14 14 (1605632)
I0718 10:52:54.510717 30641 net.cpp:137] Memory required for data: 2329772160
I0718 10:52:54.510725 30641 layer_factory.hpp:77] Creating layer bn4e_branch2a
I0718 10:52:54.510735 30641 net.cpp:84] Creating Layer bn4e_branch2a
I0718 10:52:54.510748 30641 net.cpp:406] bn4e_branch2a <- res4e_branch2a
I0718 10:52:54.510771 30641 net.cpp:367] bn4e_branch2a -> res4e_branch2a (in-place)
I0718 10:52:54.511236 30641 net.cpp:122] Setting up bn4e_branch2a
I0718 10:52:54.511253 30641 net.cpp:129] Top shape: 32 256 14 14 (1605632)
I0718 10:52:54.511258 30641 net.cpp:137] Memory required for data: 2336194688
I0718 10:52:54.511266 30641 layer_factory.hpp:77] Creating layer scale4e_branch2a
I0718 10:52:54.511299 30641 net.cpp:84] Creating Layer scale4e_branch2a
I0718 10:52:54.511312 30641 net.cpp:406] scale4e_branch2a <- res4e_branch2a
I0718 10:52:54.511317 30641 net.cpp:367] scale4e_branch2a -> res4e_branch2a (in-place)
I0718 10:52:54.511415 30641 layer_factory.hpp:77] Creating layer scale4e_branch2a
I0718 10:52:54.511616 30641 net.cpp:122] Setting up scale4e_branch2a
I0718 10:52:54.511632 30641 net.cpp:129] Top shape: 32 256 14 14 (1605632)
I0718 10:52:54.511636 30641 net.cpp:137] Memory required for data: 2342617216
I0718 10:52:54.511643 30641 layer_factory.hpp:77] Creating layer res4e_branch2a_relu
I0718 10:52:54.511656 30641 net.cpp:84] Creating Layer res4e_branch2a_relu
I0718 10:52:54.511659 30641 net.cpp:406] res4e_branch2a_relu <- res4e_branch2a
I0718 10:52:54.511670 30641 net.cpp:367] res4e_branch2a_relu -> res4e_branch2a (in-place)
I0718 10:52:54.512250 30641 net.cpp:122] Setting up res4e_branch2a_relu
I0718 10:52:54.512269 30641 net.cpp:129] Top shape: 32 256 14 14 (1605632)
I0718 10:52:54.512274 30641 net.cpp:137] Memory required for data: 2349039744
I0718 10:52:54.512277 30641 layer_factory.hpp:77] Creating layer res4e_branch2b
I0718 10:52:54.512290 30641 net.cpp:84] Creating Layer res4e_branch2b
I0718 10:52:54.512301 30641 net.cpp:406] res4e_branch2b <- res4e_branch2a
I0718 10:52:54.512308 30641 net.cpp:380] res4e_branch2b -> res4e_branch2b
I0718 10:52:54.531252 30641 net.cpp:122] Setting up res4e_branch2b
I0718 10:52:54.531286 30641 net.cpp:129] Top shape: 32 256 14 14 (1605632)
I0718 10:52:54.531291 30641 net.cpp:137] Memory required for data: 2355462272
I0718 10:52:54.531298 30641 layer_factory.hpp:77] Creating layer bn4e_branch2b
I0718 10:52:54.531347 30641 net.cpp:84] Creating Layer bn4e_branch2b
I0718 10:52:54.531354 30641 net.cpp:406] bn4e_branch2b <- res4e_branch2b
I0718 10:52:54.531370 30641 net.cpp:367] bn4e_branch2b -> res4e_branch2b (in-place)
I0718 10:52:54.531761 30641 net.cpp:122] Setting up bn4e_branch2b
I0718 10:52:54.531778 30641 net.cpp:129] Top shape: 32 256 14 14 (1605632)
I0718 10:52:54.531782 30641 net.cpp:137] Memory required for data: 2361884800
I0718 10:52:54.531790 30641 layer_factory.hpp:77] Creating layer scale4e_branch2b
I0718 10:52:54.531803 30641 net.cpp:84] Creating Layer scale4e_branch2b
I0718 10:52:54.531808 30641 net.cpp:406] scale4e_branch2b <- res4e_branch2b
I0718 10:52:54.531812 30641 net.cpp:367] scale4e_branch2b -> res4e_branch2b (in-place)
I0718 10:52:54.531901 30641 layer_factory.hpp:77] Creating layer scale4e_branch2b
I0718 10:52:54.532083 30641 net.cpp:122] Setting up scale4e_branch2b
I0718 10:52:54.532099 30641 net.cpp:129] Top shape: 32 256 14 14 (1605632)
I0718 10:52:54.532101 30641 net.cpp:137] Memory required for data: 2368307328
I0718 10:52:54.532109 30641 layer_factory.hpp:77] Creating layer res4e
I0718 10:52:54.532115 30641 net.cpp:84] Creating Layer res4e
I0718 10:52:54.532126 30641 net.cpp:406] res4e <- res4d_res4d_relu_0_split_1
I0718 10:52:54.532131 30641 net.cpp:406] res4e <- res4e_branch2b
I0718 10:52:54.532136 30641 net.cpp:380] res4e -> res4e
I0718 10:52:54.532209 30641 net.cpp:122] Setting up res4e
I0718 10:52:54.532232 30641 net.cpp:129] Top shape: 32 256 14 14 (1605632)
I0718 10:52:54.532238 30641 net.cpp:137] Memory required for data: 2374729856
I0718 10:52:54.532248 30641 layer_factory.hpp:77] Creating layer res4e_relu
I0718 10:52:54.532274 30641 net.cpp:84] Creating Layer res4e_relu
I0718 10:52:54.532286 30641 net.cpp:406] res4e_relu <- res4e
I0718 10:52:54.532294 30641 net.cpp:367] res4e_relu -> res4e (in-place)
I0718 10:52:54.533277 30641 net.cpp:122] Setting up res4e_relu
I0718 10:52:54.533303 30641 net.cpp:129] Top shape: 32 256 14 14 (1605632)
I0718 10:52:54.533309 30641 net.cpp:137] Memory required for data: 2381152384
I0718 10:52:54.533316 30641 layer_factory.hpp:77] Creating layer res4e_res4e_relu_0_split
I0718 10:52:54.533326 30641 net.cpp:84] Creating Layer res4e_res4e_relu_0_split
I0718 10:52:54.533332 30641 net.cpp:406] res4e_res4e_relu_0_split <- res4e
I0718 10:52:54.533341 30641 net.cpp:380] res4e_res4e_relu_0_split -> res4e_res4e_relu_0_split_0
I0718 10:52:54.533363 30641 net.cpp:380] res4e_res4e_relu_0_split -> res4e_res4e_relu_0_split_1
I0718 10:52:54.533447 30641 net.cpp:122] Setting up res4e_res4e_relu_0_split
I0718 10:52:54.533463 30641 net.cpp:129] Top shape: 32 256 14 14 (1605632)
I0718 10:52:54.533468 30641 net.cpp:129] Top shape: 32 256 14 14 (1605632)
I0718 10:52:54.533470 30641 net.cpp:137] Memory required for data: 2393997440
I0718 10:52:54.533473 30641 layer_factory.hpp:77] Creating layer res4f_branch2a
I0718 10:52:54.533486 30641 net.cpp:84] Creating Layer res4f_branch2a
I0718 10:52:54.533500 30641 net.cpp:406] res4f_branch2a <- res4e_res4e_relu_0_split_0
I0718 10:52:54.533506 30641 net.cpp:380] res4f_branch2a -> res4f_branch2a
I0718 10:52:54.553099 30641 net.cpp:122] Setting up res4f_branch2a
I0718 10:52:54.553128 30641 net.cpp:129] Top shape: 32 256 14 14 (1605632)
I0718 10:52:54.553133 30641 net.cpp:137] Memory required for data: 2400419968
I0718 10:52:54.553140 30641 layer_factory.hpp:77] Creating layer bn4f_branch2a
I0718 10:52:54.553151 30641 net.cpp:84] Creating Layer bn4f_branch2a
I0718 10:52:54.553164 30641 net.cpp:406] bn4f_branch2a <- res4f_branch2a
I0718 10:52:54.553171 30641 net.cpp:367] bn4f_branch2a -> res4f_branch2a (in-place)
I0718 10:52:54.553694 30641 net.cpp:122] Setting up bn4f_branch2a
I0718 10:52:54.553714 30641 net.cpp:129] Top shape: 32 256 14 14 (1605632)
I0718 10:52:54.553717 30641 net.cpp:137] Memory required for data: 2406842496
I0718 10:52:54.553726 30641 layer_factory.hpp:77] Creating layer scale4f_branch2a
I0718 10:52:54.553735 30641 net.cpp:84] Creating Layer scale4f_branch2a
I0718 10:52:54.553769 30641 net.cpp:406] scale4f_branch2a <- res4f_branch2a
I0718 10:52:54.553777 30641 net.cpp:367] scale4f_branch2a -> res4f_branch2a (in-place)
I0718 10:52:54.553875 30641 layer_factory.hpp:77] Creating layer scale4f_branch2a
I0718 10:52:54.554085 30641 net.cpp:122] Setting up scale4f_branch2a
I0718 10:52:54.554101 30641 net.cpp:129] Top shape: 32 256 14 14 (1605632)
I0718 10:52:54.554105 30641 net.cpp:137] Memory required for data: 2413265024
I0718 10:52:54.554111 30641 layer_factory.hpp:77] Creating layer res4f_branch2a_relu
I0718 10:52:54.554123 30641 net.cpp:84] Creating Layer res4f_branch2a_relu
I0718 10:52:54.554131 30641 net.cpp:406] res4f_branch2a_relu <- res4f_branch2a
I0718 10:52:54.554134 30641 net.cpp:367] res4f_branch2a_relu -> res4f_branch2a (in-place)
I0718 10:52:54.554745 30641 net.cpp:122] Setting up res4f_branch2a_relu
I0718 10:52:54.554767 30641 net.cpp:129] Top shape: 32 256 14 14 (1605632)
I0718 10:52:54.554771 30641 net.cpp:137] Memory required for data: 2419687552
I0718 10:52:54.554775 30641 layer_factory.hpp:77] Creating layer res4f_branch2b
I0718 10:52:54.554788 30641 net.cpp:84] Creating Layer res4f_branch2b
I0718 10:52:54.554800 30641 net.cpp:406] res4f_branch2b <- res4f_branch2a
I0718 10:52:54.554806 30641 net.cpp:380] res4f_branch2b -> res4f_branch2b
I0718 10:52:54.574692 30641 net.cpp:122] Setting up res4f_branch2b
I0718 10:52:54.574720 30641 net.cpp:129] Top shape: 32 256 14 14 (1605632)
I0718 10:52:54.574725 30641 net.cpp:137] Memory required for data: 2426110080
I0718 10:52:54.574733 30641 layer_factory.hpp:77] Creating layer bn4f_branch2b
I0718 10:52:54.574741 30641 net.cpp:84] Creating Layer bn4f_branch2b
I0718 10:52:54.574753 30641 net.cpp:406] bn4f_branch2b <- res4f_branch2b
I0718 10:52:54.574764 30641 net.cpp:367] bn4f_branch2b -> res4f_branch2b (in-place)
I0718 10:52:54.575130 30641 net.cpp:122] Setting up bn4f_branch2b
I0718 10:52:54.575146 30641 net.cpp:129] Top shape: 32 256 14 14 (1605632)
I0718 10:52:54.575150 30641 net.cpp:137] Memory required for data: 2432532608
I0718 10:52:54.575158 30641 layer_factory.hpp:77] Creating layer scale4f_branch2b
I0718 10:52:54.575171 30641 net.cpp:84] Creating Layer scale4f_branch2b
I0718 10:52:54.575176 30641 net.cpp:406] scale4f_branch2b <- res4f_branch2b
I0718 10:52:54.575201 30641 net.cpp:367] scale4f_branch2b -> res4f_branch2b (in-place)
I0718 10:52:54.575284 30641 layer_factory.hpp:77] Creating layer scale4f_branch2b
I0718 10:52:54.575480 30641 net.cpp:122] Setting up scale4f_branch2b
I0718 10:52:54.575495 30641 net.cpp:129] Top shape: 32 256 14 14 (1605632)
I0718 10:52:54.575498 30641 net.cpp:137] Memory required for data: 2438955136
I0718 10:52:54.575505 30641 layer_factory.hpp:77] Creating layer res4f
I0718 10:52:54.575518 30641 net.cpp:84] Creating Layer res4f
I0718 10:52:54.575523 30641 net.cpp:406] res4f <- res4e_res4e_relu_0_split_1
I0718 10:52:54.575528 30641 net.cpp:406] res4f <- res4f_branch2b
I0718 10:52:54.575533 30641 net.cpp:380] res4f -> res4f
I0718 10:52:54.575582 30641 net.cpp:122] Setting up res4f
I0718 10:52:54.575594 30641 net.cpp:129] Top shape: 32 256 14 14 (1605632)
I0718 10:52:54.575598 30641 net.cpp:137] Memory required for data: 2445377664
I0718 10:52:54.575601 30641 layer_factory.hpp:77] Creating layer res4f_relu
I0718 10:52:54.575609 30641 net.cpp:84] Creating Layer res4f_relu
I0718 10:52:54.575639 30641 net.cpp:406] res4f_relu <- res4f
I0718 10:52:54.575644 30641 net.cpp:367] res4f_relu -> res4f (in-place)
I0718 10:52:54.576217 30641 net.cpp:122] Setting up res4f_relu
I0718 10:52:54.576248 30641 net.cpp:129] Top shape: 32 256 14 14 (1605632)
I0718 10:52:54.576259 30641 net.cpp:137] Memory required for data: 2451800192
I0718 10:52:54.576264 30641 layer_factory.hpp:77] Creating layer res4f_res4f_relu_0_split
I0718 10:52:54.576275 30641 net.cpp:84] Creating Layer res4f_res4f_relu_0_split
I0718 10:52:54.576284 30641 net.cpp:406] res4f_res4f_relu_0_split <- res4f
I0718 10:52:54.576290 30641 net.cpp:380] res4f_res4f_relu_0_split -> res4f_res4f_relu_0_split_0
I0718 10:52:54.576297 30641 net.cpp:380] res4f_res4f_relu_0_split -> res4f_res4f_relu_0_split_1
I0718 10:52:54.576400 30641 net.cpp:122] Setting up res4f_res4f_relu_0_split
I0718 10:52:54.576413 30641 net.cpp:129] Top shape: 32 256 14 14 (1605632)
I0718 10:52:54.576418 30641 net.cpp:129] Top shape: 32 256 14 14 (1605632)
I0718 10:52:54.576421 30641 net.cpp:137] Memory required for data: 2464645248
I0718 10:52:54.576424 30641 layer_factory.hpp:77] Creating layer res5a_branch1
I0718 10:52:54.576436 30641 net.cpp:84] Creating Layer res5a_branch1
I0718 10:52:54.576447 30641 net.cpp:406] res5a_branch1 <- res4f_res4f_relu_0_split_0
I0718 10:52:54.576452 30641 net.cpp:380] res5a_branch1 -> res5a_branch1
I0718 10:52:54.582078 30641 net.cpp:122] Setting up res5a_branch1
I0718 10:52:54.582104 30641 net.cpp:129] Top shape: 32 512 7 7 (802816)
I0718 10:52:54.582108 30641 net.cpp:137] Memory required for data: 2467856512
I0718 10:52:54.582115 30641 layer_factory.hpp:77] Creating layer bn5a_branch1
I0718 10:52:54.582132 30641 net.cpp:84] Creating Layer bn5a_branch1
I0718 10:52:54.582137 30641 net.cpp:406] bn5a_branch1 <- res5a_branch1
I0718 10:52:54.582144 30641 net.cpp:367] bn5a_branch1 -> res5a_branch1 (in-place)
I0718 10:52:54.582552 30641 net.cpp:122] Setting up bn5a_branch1
I0718 10:52:54.582572 30641 net.cpp:129] Top shape: 32 512 7 7 (802816)
I0718 10:52:54.582576 30641 net.cpp:137] Memory required for data: 2471067776
I0718 10:52:54.582585 30641 layer_factory.hpp:77] Creating layer scale5a_branch1
I0718 10:52:54.582595 30641 net.cpp:84] Creating Layer scale5a_branch1
I0718 10:52:54.582607 30641 net.cpp:406] scale5a_branch1 <- res5a_branch1
I0718 10:52:54.582612 30641 net.cpp:367] scale5a_branch1 -> res5a_branch1 (in-place)
I0718 10:52:54.582676 30641 layer_factory.hpp:77] Creating layer scale5a_branch1
I0718 10:52:54.582870 30641 net.cpp:122] Setting up scale5a_branch1
I0718 10:52:54.582883 30641 net.cpp:129] Top shape: 32 512 7 7 (802816)
I0718 10:52:54.582887 30641 net.cpp:137] Memory required for data: 2474279040
I0718 10:52:54.582893 30641 layer_factory.hpp:77] Creating layer res5a_branch2a
I0718 10:52:54.582911 30641 net.cpp:84] Creating Layer res5a_branch2a
I0718 10:52:54.582916 30641 net.cpp:406] res5a_branch2a <- res4f_res4f_relu_0_split_1
I0718 10:52:54.582922 30641 net.cpp:380] res5a_branch2a -> res5a_branch2a
I0718 10:52:54.618765 30641 net.cpp:122] Setting up res5a_branch2a
I0718 10:52:54.618816 30641 net.cpp:129] Top shape: 32 512 7 7 (802816)
I0718 10:52:54.618822 30641 net.cpp:137] Memory required for data: 2477490304
I0718 10:52:54.618834 30641 layer_factory.hpp:77] Creating layer bn5a_branch2a
I0718 10:52:54.618849 30641 net.cpp:84] Creating Layer bn5a_branch2a
I0718 10:52:54.618856 30641 net.cpp:406] bn5a_branch2a <- res5a_branch2a
I0718 10:52:54.618867 30641 net.cpp:367] bn5a_branch2a -> res5a_branch2a (in-place)
I0718 10:52:54.619294 30641 net.cpp:122] Setting up bn5a_branch2a
I0718 10:52:54.619313 30641 net.cpp:129] Top shape: 32 512 7 7 (802816)
I0718 10:52:54.619316 30641 net.cpp:137] Memory required for data: 2480701568
I0718 10:52:54.619326 30641 layer_factory.hpp:77] Creating layer scale5a_branch2a
I0718 10:52:54.619339 30641 net.cpp:84] Creating Layer scale5a_branch2a
I0718 10:52:54.619350 30641 net.cpp:406] scale5a_branch2a <- res5a_branch2a
I0718 10:52:54.619356 30641 net.cpp:367] scale5a_branch2a -> res5a_branch2a (in-place)
I0718 10:52:54.619436 30641 layer_factory.hpp:77] Creating layer scale5a_branch2a
I0718 10:52:54.619668 30641 net.cpp:122] Setting up scale5a_branch2a
I0718 10:52:54.619683 30641 net.cpp:129] Top shape: 32 512 7 7 (802816)
I0718 10:52:54.619686 30641 net.cpp:137] Memory required for data: 2483912832
I0718 10:52:54.619693 30641 layer_factory.hpp:77] Creating layer res5a_branch2a_relu
I0718 10:52:54.619706 30641 net.cpp:84] Creating Layer res5a_branch2a_relu
I0718 10:52:54.619711 30641 net.cpp:406] res5a_branch2a_relu <- res5a_branch2a
I0718 10:52:54.619717 30641 net.cpp:367] res5a_branch2a_relu -> res5a_branch2a (in-place)
I0718 10:52:54.620702 30641 net.cpp:122] Setting up res5a_branch2a_relu
I0718 10:52:54.620726 30641 net.cpp:129] Top shape: 32 512 7 7 (802816)
I0718 10:52:54.620767 30641 net.cpp:137] Memory required for data: 2487124096
I0718 10:52:54.620774 30641 layer_factory.hpp:77] Creating layer res5a_branch2b
I0718 10:52:54.620787 30641 net.cpp:84] Creating Layer res5a_branch2b
I0718 10:52:54.620802 30641 net.cpp:406] res5a_branch2b <- res5a_branch2a
I0718 10:52:54.620815 30641 net.cpp:380] res5a_branch2b -> res5a_branch2b
I0718 10:52:54.689990 30641 net.cpp:122] Setting up res5a_branch2b
I0718 10:52:54.690042 30641 net.cpp:129] Top shape: 32 512 7 7 (802816)
I0718 10:52:54.690052 30641 net.cpp:137] Memory required for data: 2490335360
I0718 10:52:54.690064 30641 layer_factory.hpp:77] Creating layer bn5a_branch2b
I0718 10:52:54.690086 30641 net.cpp:84] Creating Layer bn5a_branch2b
I0718 10:52:54.690098 30641 net.cpp:406] bn5a_branch2b <- res5a_branch2b
I0718 10:52:54.690109 30641 net.cpp:367] bn5a_branch2b -> res5a_branch2b (in-place)
I0718 10:52:54.690598 30641 net.cpp:122] Setting up bn5a_branch2b
I0718 10:52:54.690621 30641 net.cpp:129] Top shape: 32 512 7 7 (802816)
I0718 10:52:54.690626 30641 net.cpp:137] Memory required for data: 2493546624
I0718 10:52:54.690641 30641 layer_factory.hpp:77] Creating layer scale5a_branch2b
I0718 10:52:54.690673 30641 net.cpp:84] Creating Layer scale5a_branch2b
I0718 10:52:54.690680 30641 net.cpp:406] scale5a_branch2b <- res5a_branch2b
I0718 10:52:54.690685 30641 net.cpp:367] scale5a_branch2b -> res5a_branch2b (in-place)
I0718 10:52:54.690763 30641 layer_factory.hpp:77] Creating layer scale5a_branch2b
I0718 10:52:54.691020 30641 net.cpp:122] Setting up scale5a_branch2b
I0718 10:52:54.691037 30641 net.cpp:129] Top shape: 32 512 7 7 (802816)
I0718 10:52:54.691041 30641 net.cpp:137] Memory required for data: 2496757888
I0718 10:52:54.691048 30641 layer_factory.hpp:77] Creating layer res5a
I0718 10:52:54.691071 30641 net.cpp:84] Creating Layer res5a
I0718 10:52:54.691082 30641 net.cpp:406] res5a <- res5a_branch1
I0718 10:52:54.691092 30641 net.cpp:406] res5a <- res5a_branch2b
I0718 10:52:54.691102 30641 net.cpp:380] res5a -> res5a
I0718 10:52:54.691160 30641 net.cpp:122] Setting up res5a
I0718 10:52:54.691195 30641 net.cpp:129] Top shape: 32 512 7 7 (802816)
I0718 10:52:54.691200 30641 net.cpp:137] Memory required for data: 2499969152
I0718 10:52:54.691205 30641 layer_factory.hpp:77] Creating layer res5a_relu
I0718 10:52:54.691211 30641 net.cpp:84] Creating Layer res5a_relu
I0718 10:52:54.691215 30641 net.cpp:406] res5a_relu <- res5a
I0718 10:52:54.691220 30641 net.cpp:367] res5a_relu -> res5a (in-place)
I0718 10:52:54.691881 30641 net.cpp:122] Setting up res5a_relu
I0718 10:52:54.691901 30641 net.cpp:129] Top shape: 32 512 7 7 (802816)
I0718 10:52:54.691905 30641 net.cpp:137] Memory required for data: 2503180416
I0718 10:52:54.691910 30641 layer_factory.hpp:77] Creating layer res5a_res5a_relu_0_split
I0718 10:52:54.691938 30641 net.cpp:84] Creating Layer res5a_res5a_relu_0_split
I0718 10:52:54.691949 30641 net.cpp:406] res5a_res5a_relu_0_split <- res5a
I0718 10:52:54.691956 30641 net.cpp:380] res5a_res5a_relu_0_split -> res5a_res5a_relu_0_split_0
I0718 10:52:54.691963 30641 net.cpp:380] res5a_res5a_relu_0_split -> res5a_res5a_relu_0_split_1
I0718 10:52:54.692065 30641 net.cpp:122] Setting up res5a_res5a_relu_0_split
I0718 10:52:54.692080 30641 net.cpp:129] Top shape: 32 512 7 7 (802816)
I0718 10:52:54.692083 30641 net.cpp:129] Top shape: 32 512 7 7 (802816)
I0718 10:52:54.692087 30641 net.cpp:137] Memory required for data: 2509602944
I0718 10:52:54.692090 30641 layer_factory.hpp:77] Creating layer res5b_branch2a
I0718 10:52:54.692103 30641 net.cpp:84] Creating Layer res5b_branch2a
I0718 10:52:54.692116 30641 net.cpp:406] res5b_branch2a <- res5a_res5a_relu_0_split_0
I0718 10:52:54.692126 30641 net.cpp:380] res5b_branch2a -> res5b_branch2a
I0718 10:52:54.758702 30641 net.cpp:122] Setting up res5b_branch2a
I0718 10:52:54.758749 30641 net.cpp:129] Top shape: 32 512 7 7 (802816)
I0718 10:52:54.758754 30641 net.cpp:137] Memory required for data: 2512814208
I0718 10:52:54.758764 30641 layer_factory.hpp:77] Creating layer bn5b_branch2a
I0718 10:52:54.758812 30641 net.cpp:84] Creating Layer bn5b_branch2a
I0718 10:52:54.758831 30641 net.cpp:406] bn5b_branch2a <- res5b_branch2a
I0718 10:52:54.758841 30641 net.cpp:367] bn5b_branch2a -> res5b_branch2a (in-place)
I0718 10:52:54.759219 30641 net.cpp:122] Setting up bn5b_branch2a
I0718 10:52:54.759238 30641 net.cpp:129] Top shape: 32 512 7 7 (802816)
I0718 10:52:54.759241 30641 net.cpp:137] Memory required for data: 2516025472
I0718 10:52:54.759250 30641 layer_factory.hpp:77] Creating layer scale5b_branch2a
I0718 10:52:54.759265 30641 net.cpp:84] Creating Layer scale5b_branch2a
I0718 10:52:54.759270 30641 net.cpp:406] scale5b_branch2a <- res5b_branch2a
I0718 10:52:54.759274 30641 net.cpp:367] scale5b_branch2a -> res5b_branch2a (in-place)
I0718 10:52:54.759351 30641 layer_factory.hpp:77] Creating layer scale5b_branch2a
I0718 10:52:54.759549 30641 net.cpp:122] Setting up scale5b_branch2a
I0718 10:52:54.759563 30641 net.cpp:129] Top shape: 32 512 7 7 (802816)
I0718 10:52:54.759567 30641 net.cpp:137] Memory required for data: 2519236736
I0718 10:52:54.759573 30641 layer_factory.hpp:77] Creating layer res5b_branch2a_relu
I0718 10:52:54.759582 30641 net.cpp:84] Creating Layer res5b_branch2a_relu
I0718 10:52:54.759593 30641 net.cpp:406] res5b_branch2a_relu <- res5b_branch2a
I0718 10:52:54.759599 30641 net.cpp:367] res5b_branch2a_relu -> res5b_branch2a (in-place)
I0718 10:52:54.760174 30641 net.cpp:122] Setting up res5b_branch2a_relu
I0718 10:52:54.760223 30641 net.cpp:129] Top shape: 32 512 7 7 (802816)
I0718 10:52:54.760227 30641 net.cpp:137] Memory required for data: 2522448000
I0718 10:52:54.760232 30641 layer_factory.hpp:77] Creating layer res5b_branch2b
I0718 10:52:54.760246 30641 net.cpp:84] Creating Layer res5b_branch2b
I0718 10:52:54.760257 30641 net.cpp:406] res5b_branch2b <- res5b_branch2a
I0718 10:52:54.760265 30641 net.cpp:380] res5b_branch2b -> res5b_branch2b
I0718 10:52:54.825495 30641 net.cpp:122] Setting up res5b_branch2b
I0718 10:52:54.825541 30641 net.cpp:129] Top shape: 32 512 7 7 (802816)
I0718 10:52:54.825546 30641 net.cpp:137] Memory required for data: 2525659264
I0718 10:52:54.825572 30641 layer_factory.hpp:77] Creating layer bn5b_branch2b
I0718 10:52:54.825590 30641 net.cpp:84] Creating Layer bn5b_branch2b
I0718 10:52:54.825608 30641 net.cpp:406] bn5b_branch2b <- res5b_branch2b
I0718 10:52:54.825618 30641 net.cpp:367] bn5b_branch2b -> res5b_branch2b (in-place)
I0718 10:52:54.825971 30641 net.cpp:122] Setting up bn5b_branch2b
I0718 10:52:54.825987 30641 net.cpp:129] Top shape: 32 512 7 7 (802816)
I0718 10:52:54.826002 30641 net.cpp:137] Memory required for data: 2528870528
I0718 10:52:54.826019 30641 layer_factory.hpp:77] Creating layer scale5b_branch2b
I0718 10:52:54.826030 30641 net.cpp:84] Creating Layer scale5b_branch2b
I0718 10:52:54.826066 30641 net.cpp:406] scale5b_branch2b <- res5b_branch2b
I0718 10:52:54.826072 30641 net.cpp:367] scale5b_branch2b -> res5b_branch2b (in-place)
I0718 10:52:54.826220 30641 layer_factory.hpp:77] Creating layer scale5b_branch2b
I0718 10:52:54.826486 30641 net.cpp:122] Setting up scale5b_branch2b
I0718 10:52:54.826506 30641 net.cpp:129] Top shape: 32 512 7 7 (802816)
I0718 10:52:54.826519 30641 net.cpp:137] Memory required for data: 2532081792
I0718 10:52:54.826529 30641 layer_factory.hpp:77] Creating layer res5b
I0718 10:52:54.826552 30641 net.cpp:84] Creating Layer res5b
I0718 10:52:54.826568 30641 net.cpp:406] res5b <- res5a_res5a_relu_0_split_1
I0718 10:52:54.826575 30641 net.cpp:406] res5b <- res5b_branch2b
I0718 10:52:54.826581 30641 net.cpp:380] res5b -> res5b
I0718 10:52:54.826653 30641 net.cpp:122] Setting up res5b
I0718 10:52:54.826670 30641 net.cpp:129] Top shape: 32 512 7 7 (802816)
I0718 10:52:54.826676 30641 net.cpp:137] Memory required for data: 2535293056
I0718 10:52:54.826683 30641 layer_factory.hpp:77] Creating layer res5b_relu
I0718 10:52:54.826691 30641 net.cpp:84] Creating Layer res5b_relu
I0718 10:52:54.826705 30641 net.cpp:406] res5b_relu <- res5b
I0718 10:52:54.826721 30641 net.cpp:367] res5b_relu -> res5b (in-place)
I0718 10:52:54.827793 30641 net.cpp:122] Setting up res5b_relu
I0718 10:52:54.827818 30641 net.cpp:129] Top shape: 32 512 7 7 (802816)
I0718 10:52:54.827823 30641 net.cpp:137] Memory required for data: 2538504320
I0718 10:52:54.827827 30641 layer_factory.hpp:77] Creating layer res5b_res5b_relu_0_split
I0718 10:52:54.827838 30641 net.cpp:84] Creating Layer res5b_res5b_relu_0_split
I0718 10:52:54.827850 30641 net.cpp:406] res5b_res5b_relu_0_split <- res5b
I0718 10:52:54.827857 30641 net.cpp:380] res5b_res5b_relu_0_split -> res5b_res5b_relu_0_split_0
I0718 10:52:54.827864 30641 net.cpp:380] res5b_res5b_relu_0_split -> res5b_res5b_relu_0_split_1
I0718 10:52:54.827951 30641 net.cpp:122] Setting up res5b_res5b_relu_0_split
I0718 10:52:54.827965 30641 net.cpp:129] Top shape: 32 512 7 7 (802816)
I0718 10:52:54.827970 30641 net.cpp:129] Top shape: 32 512 7 7 (802816)
I0718 10:52:54.827973 30641 net.cpp:137] Memory required for data: 2544926848
I0718 10:52:54.827976 30641 layer_factory.hpp:77] Creating layer res5c_branch2a
I0718 10:52:54.827991 30641 net.cpp:84] Creating Layer res5c_branch2a
I0718 10:52:54.828001 30641 net.cpp:406] res5c_branch2a <- res5b_res5b_relu_0_split_0
I0718 10:52:54.828006 30641 net.cpp:380] res5c_branch2a -> res5c_branch2a
I0718 10:52:54.892946 30641 net.cpp:122] Setting up res5c_branch2a
I0718 10:52:54.892992 30641 net.cpp:129] Top shape: 32 512 7 7 (802816)
I0718 10:52:54.892997 30641 net.cpp:137] Memory required for data: 2548138112
I0718 10:52:54.893008 30641 layer_factory.hpp:77] Creating layer bn5c_branch2a
I0718 10:52:54.893023 30641 net.cpp:84] Creating Layer bn5c_branch2a
I0718 10:52:54.893039 30641 net.cpp:406] bn5c_branch2a <- res5c_branch2a
I0718 10:52:54.893051 30641 net.cpp:367] bn5c_branch2a -> res5c_branch2a (in-place)
I0718 10:52:54.893438 30641 net.cpp:122] Setting up bn5c_branch2a
I0718 10:52:54.893462 30641 net.cpp:129] Top shape: 32 512 7 7 (802816)
I0718 10:52:54.893466 30641 net.cpp:137] Memory required for data: 2551349376
I0718 10:52:54.893476 30641 layer_factory.hpp:77] Creating layer scale5c_branch2a
I0718 10:52:54.893483 30641 net.cpp:84] Creating Layer scale5c_branch2a
I0718 10:52:54.893494 30641 net.cpp:406] scale5c_branch2a <- res5c_branch2a
I0718 10:52:54.893499 30641 net.cpp:367] scale5c_branch2a -> res5c_branch2a (in-place)
I0718 10:52:54.893576 30641 layer_factory.hpp:77] Creating layer scale5c_branch2a
I0718 10:52:54.893795 30641 net.cpp:122] Setting up scale5c_branch2a
I0718 10:52:54.893808 30641 net.cpp:129] Top shape: 32 512 7 7 (802816)
I0718 10:52:54.893812 30641 net.cpp:137] Memory required for data: 2554560640
I0718 10:52:54.893820 30641 layer_factory.hpp:77] Creating layer res5c_branch2a_relu
I0718 10:52:54.893836 30641 net.cpp:84] Creating Layer res5c_branch2a_relu
I0718 10:52:54.893839 30641 net.cpp:406] res5c_branch2a_relu <- res5c_branch2a
I0718 10:52:54.893844 30641 net.cpp:367] res5c_branch2a_relu -> res5c_branch2a (in-place)
I0718 10:52:54.894424 30641 net.cpp:122] Setting up res5c_branch2a_relu
I0718 10:52:54.894448 30641 net.cpp:129] Top shape: 32 512 7 7 (802816)
I0718 10:52:54.894451 30641 net.cpp:137] Memory required for data: 2557771904
I0718 10:52:54.894456 30641 layer_factory.hpp:77] Creating layer res5c_branch2b
I0718 10:52:54.894469 30641 net.cpp:84] Creating Layer res5c_branch2b
I0718 10:52:54.894482 30641 net.cpp:406] res5c_branch2b <- res5c_branch2a
I0718 10:52:54.894491 30641 net.cpp:380] res5c_branch2b -> res5c_branch2b
I0718 10:52:54.960165 30641 net.cpp:122] Setting up res5c_branch2b
I0718 10:52:54.960229 30641 net.cpp:129] Top shape: 32 512 7 7 (802816)
I0718 10:52:54.960238 30641 net.cpp:137] Memory required for data: 2560983168
I0718 10:52:54.960248 30641 layer_factory.hpp:77] Creating layer bn5c_branch2b
I0718 10:52:54.960263 30641 net.cpp:84] Creating Layer bn5c_branch2b
I0718 10:52:54.960271 30641 net.cpp:406] bn5c_branch2b <- res5c_branch2b
I0718 10:52:54.960288 30641 net.cpp:367] bn5c_branch2b -> res5c_branch2b (in-place)
I0718 10:52:54.960710 30641 net.cpp:122] Setting up bn5c_branch2b
I0718 10:52:54.960727 30641 net.cpp:129] Top shape: 32 512 7 7 (802816)
I0718 10:52:54.960765 30641 net.cpp:137] Memory required for data: 2564194432
I0718 10:52:54.960777 30641 layer_factory.hpp:77] Creating layer scale5c_branch2b
I0718 10:52:54.960798 30641 net.cpp:84] Creating Layer scale5c_branch2b
I0718 10:52:54.960804 30641 net.cpp:406] scale5c_branch2b <- res5c_branch2b
I0718 10:52:54.960813 30641 net.cpp:367] scale5c_branch2b -> res5c_branch2b (in-place)
I0718 10:52:54.960942 30641 layer_factory.hpp:77] Creating layer scale5c_branch2b
I0718 10:52:54.961263 30641 net.cpp:122] Setting up scale5c_branch2b
I0718 10:52:54.961284 30641 net.cpp:129] Top shape: 32 512 7 7 (802816)
I0718 10:52:54.961290 30641 net.cpp:137] Memory required for data: 2567405696
I0718 10:52:54.961302 30641 layer_factory.hpp:77] Creating layer res5c
I0718 10:52:54.961316 30641 net.cpp:84] Creating Layer res5c
I0718 10:52:54.961331 30641 net.cpp:406] res5c <- res5b_res5b_relu_0_split_1
I0718 10:52:54.961340 30641 net.cpp:406] res5c <- res5c_branch2b
I0718 10:52:54.961349 30641 net.cpp:380] res5c -> res5c
I0718 10:52:54.961410 30641 net.cpp:122] Setting up res5c
I0718 10:52:54.961424 30641 net.cpp:129] Top shape: 32 512 7 7 (802816)
I0718 10:52:54.961427 30641 net.cpp:137] Memory required for data: 2570616960
I0718 10:52:54.961431 30641 layer_factory.hpp:77] Creating layer res5c_relu
I0718 10:52:54.961443 30641 net.cpp:84] Creating Layer res5c_relu
I0718 10:52:54.961453 30641 net.cpp:406] res5c_relu <- res5c
I0718 10:52:54.961462 30641 net.cpp:367] res5c_relu -> res5c (in-place)
I0718 10:52:54.962054 30641 net.cpp:122] Setting up res5c_relu
I0718 10:52:54.962074 30641 net.cpp:129] Top shape: 32 512 7 7 (802816)
I0718 10:52:54.962079 30641 net.cpp:137] Memory required for data: 2573828224
I0718 10:52:54.962082 30641 layer_factory.hpp:77] Creating layer pool5
I0718 10:52:54.962091 30641 net.cpp:84] Creating Layer pool5
I0718 10:52:54.962101 30641 net.cpp:406] pool5 <- res5c
I0718 10:52:54.962113 30641 net.cpp:380] pool5 -> pool5
I0718 10:52:54.962749 30641 net.cpp:122] Setting up pool5
I0718 10:52:54.962769 30641 net.cpp:129] Top shape: 32 512 5 5 (409600)
I0718 10:52:54.962772 30641 net.cpp:137] Memory required for data: 2575466624
I0718 10:52:54.962776 30641 layer_factory.hpp:77] Creating layer fc6
I0718 10:52:54.962785 30641 net.cpp:84] Creating Layer fc6
I0718 10:52:54.962790 30641 net.cpp:406] fc6 <- pool5
I0718 10:52:54.962798 30641 net.cpp:380] fc6 -> fc6
I0718 10:52:55.056825 30641 net.cpp:122] Setting up fc6
I0718 10:52:55.056880 30641 net.cpp:129] Top shape: 32 1024 (32768)
I0718 10:52:55.056885 30641 net.cpp:137] Memory required for data: 2575597696
I0718 10:52:55.056897 30641 layer_factory.hpp:77] Creating layer relu6
I0718 10:52:55.056912 30641 net.cpp:84] Creating Layer relu6
I0718 10:52:55.056919 30641 net.cpp:406] relu6 <- fc6
I0718 10:52:55.056928 30641 net.cpp:367] relu6 -> fc6 (in-place)
I0718 10:52:55.058351 30641 net.cpp:122] Setting up relu6
I0718 10:52:55.058372 30641 net.cpp:129] Top shape: 32 1024 (32768)
I0718 10:52:55.058377 30641 net.cpp:137] Memory required for data: 2575728768
I0718 10:52:55.058382 30641 layer_factory.hpp:77] Creating layer fc17128
I0718 10:52:55.058401 30641 net.cpp:84] Creating Layer fc17128
I0718 10:52:55.058406 30641 net.cpp:406] fc17128 <- fc6
I0718 10:52:55.058415 30641 net.cpp:380] fc17128 -> fc17128
I0718 10:52:55.063280 30641 net.cpp:122] Setting up fc17128
I0718 10:52:55.063305 30641 net.cpp:129] Top shape: 32 128 (4096)
I0718 10:52:55.063309 30641 net.cpp:137] Memory required for data: 2575745152
I0718 10:52:55.063318 30641 layer_factory.hpp:77] Creating layer l2
I0718 10:52:55.063328 30641 net.cpp:84] Creating Layer l2
I0718 10:52:55.063339 30641 net.cpp:406] l2 <- fc17128
I0718 10:52:55.063346 30641 net.cpp:380] l2 -> l2
I0718 10:52:55.063422 30641 net.cpp:122] Setting up l2
I0718 10:52:55.063438 30641 net.cpp:129] Top shape: 32 128 (4096)
I0718 10:52:55.063442 30641 net.cpp:137] Memory required for data: 2575761536
I0718 10:52:55.063446 30641 layer_factory.hpp:77] Creating layer tripletloss
I0718 10:52:55.063491 30641 net.cpp:84] Creating Layer tripletloss
I0718 10:52:55.063496 30641 net.cpp:406] tripletloss <- l2
I0718 10:52:55.063506 30641 net.cpp:406] tripletloss <- label
I0718 10:52:55.063522 30641 net.cpp:380] tripletloss -> tripletloss
…
